program(1.0)
[buildInfo = dict<tensor<string, []>, tensor<string, []>>({{"coremlc-component-MIL", "3402.3.2"}, {"coremlc-version", "3402.4.1"}})]
{
    func main<ios16>(tensor<int32, [?]> context) [FlexibleShapeInformation = tuple<tuple<tensor<string, []>, dict<tensor<string, []>, tensor<int32, [?]>>>, tuple<tensor<string, []>, dict<tensor<string, []>, list<tensor<int32, [2]>, ?>>>>((("DefaultShapes", {{"context", [1]}}), ("RangeDims", {{"context", [[1, 32]]}})))] {
            tensor<int32, []> var_6 = const()[name = tensor<string, []>("op_6"), val = tensor<int32, []>(768)];
            tensor<int32, []> var_8 = const()[name = tensor<string, []>("op_8"), val = tensor<int32, []>(64)];
            tensor<int32, []> var_9 = const()[name = tensor<string, []>("op_9"), val = tensor<int32, []>(2304)];
            tensor<int32, []> var_11 = const()[name = tensor<string, []>("op_11"), val = tensor<int32, []>(3072)];
            tensor<int32, []> var_22 = const()[name = tensor<string, []>("op_22"), val = tensor<int32, []>(1)];
            tensor<int32, []> var_23 = const()[name = tensor<string, []>("op_23"), val = tensor<int32, []>(-1)];
            tensor<int32, []> var_24 = const()[name = tensor<string, []>("op_24"), val = tensor<int32, []>(0)];
            tensor<int32, [1]> var_44_shape = shape(x = context)[name = tensor<string, []>("op_44_shape")];
            tensor<int32, []> gather_0_indices_0 = const()[name = tensor<string, []>("gather_0_indices_0"), val = tensor<int32, []>(0)];
            tensor<int32, []> gather_0_axis_0 = const()[name = tensor<string, []>("gather_0_axis_0"), val = tensor<int32, []>(0)];
            tensor<int32, []> gather_0_batch_dims_0 = const()[name = tensor<string, []>("gather_0_batch_dims_0"), val = tensor<int32, []>(0)];
            tensor<int32, []> gather_0 = gather(axis = gather_0_axis_0, batch_dims = gather_0_batch_dims_0, indices = gather_0_indices_0, x = var_44_shape)[name = tensor<string, []>("gather_0")];
            tensor<int32, [2]> concat_0x = const()[name = tensor<string, []>("concat_0x"), val = tensor<int32, [2]>([1, -1])];
            tensor<int32, [1, ?]> input_ids = reshape(shape = concat_0x, x = context)[name = tensor<string, []>("input_ids")];
            tensor<int32, []> gather_1 = const()[name = tensor<string, []>("gather_1"), val = tensor<int32, []>(1)];
            tensor<int32, []> const_0 = const()[name = tensor<string, []>("const_0"), val = tensor<int32, []>(1)];
            tensor<int32, [?]> position_ids = range_1d(end = gather_0, start = var_24, step = const_0)[name = tensor<string, []>("position_ids")];
            tensor<int32, [1]> input_1_axes_0 = const()[name = tensor<string, []>("input_1_axes_0"), val = tensor<int32, [1]>([0])];
            tensor<int32, [1, ?]> input_1 = expand_dims(axes = input_1_axes_0, x = position_ids)[name = tensor<string, []>("input_1")];
            tensor<int32, []> inputs_embeds_axis_0 = const()[name = tensor<string, []>("inputs_embeds_axis_0"), val = tensor<int32, []>(0)];
            tensor<fp16, [50257, 768]> transformer_wte_weight_to_fp16_palettized = constexpr_lut_to_dense()[indices = tensor<uint8, [9649344]>(BLOBFILE(path = tensor<string, []>("@model_path/weights/weight.bin"), offset = tensor<uint64, []>(64))), lut = tensor<fp16, [4]>([-0x1.cccp-3, -0x1.17p-4, 0x1.fcp-5, 0x1.b94p-3]), name = tensor<string, []>("transformer_wte_weight_to_fp16_palettized"), shape = tensor<uint32, [2]>([50257, 768])];
            tensor<int32, []> inputs_embeds_cast_fp16_batch_dims_0 = const()[name = tensor<string, []>("inputs_embeds_cast_fp16_batch_dims_0"), val = tensor<int32, []>(0)];
            tensor<fp16, [1, ?, 768]> inputs_embeds_cast_fp16 = gather(axis = inputs_embeds_axis_0, batch_dims = inputs_embeds_cast_fp16_batch_dims_0, indices = input_ids, x = transformer_wte_weight_to_fp16_palettized)[name = tensor<string, []>("inputs_embeds_cast_fp16")];
            tensor<int32, []> position_embeds_axis_0 = const()[name = tensor<string, []>("position_embeds_axis_0"), val = tensor<int32, []>(0)];
            tensor<fp16, [1024, 768]> transformer_wpe_weight_to_fp16_palettized = constexpr_lut_to_dense()[indices = tensor<uint8, [196608]>(BLOBFILE(path = tensor<string, []>("@model_path/weights/weight.bin"), offset = tensor<uint64, []>(9649472))), lut = tensor<fp16, [4]>([-0x1.21p-1, -0x1.2ecp-9, 0x1.3d4p-2, 0x1.7d8p-1]), name = tensor<string, []>("transformer_wpe_weight_to_fp16_palettized"), shape = tensor<uint32, [2]>([1024, 768])];
            tensor<int32, []> position_embeds_cast_fp16_batch_dims_0 = const()[name = tensor<string, []>("position_embeds_cast_fp16_batch_dims_0"), val = tensor<int32, []>(0)];
            tensor<fp16, [1, ?, 768]> position_embeds_cast_fp16 = gather(axis = position_embeds_axis_0, batch_dims = position_embeds_cast_fp16_batch_dims_0, indices = input_1, x = transformer_wpe_weight_to_fp16_palettized)[name = tensor<string, []>("position_embeds_cast_fp16")];
            tensor<fp16, [1, ?, 768]> input_3_cast_fp16 = add(x = inputs_embeds_cast_fp16, y = position_embeds_cast_fp16)[name = tensor<string, []>("input_3_cast_fp16")];
            tensor<int32, []> past_key_values_length = sub(x = gather_0, y = gather_0)[name = tensor<string, []>("past_key_values_length")];
            tensor<int32, []> concat_1_axis_0 = const()[name = tensor<string, []>("concat_1_axis_0"), val = tensor<int32, []>(0)];
            tensor<bool, []> concat_1_interleave_0 = const()[name = tensor<string, []>("concat_1_interleave_0"), val = tensor<bool, []>(false)];
            tensor<int32, [2]> concat_1 = concat(axis = concat_1_axis_0, interleave = concat_1_interleave_0, values = (gather_0, gather_0))[name = tensor<string, []>("concat_1")];
            tensor<fp16, []> mask_1_value_0_to_fp16 = const()[name = tensor<string, []>("mask_1_value_0_to_fp16"), val = tensor<fp16, []>(-inf)];
            tensor<fp16, [?, ?]> mask_1_cast_fp16 = fill(shape = concat_1, value = mask_1_value_0_to_fp16)[name = tensor<string, []>("mask_1_cast_fp16")];
            tensor<int32, [2]> var_64_shape_cast_fp16 = shape(x = mask_1_cast_fp16)[name = tensor<string, []>("op_64_shape_cast_fp16")];
            tensor<int32, []> gather_2_indices_0 = const()[name = tensor<string, []>("gather_2_indices_0"), val = tensor<int32, []>(-1)];
            tensor<int32, []> gather_2_axis_0 = const()[name = tensor<string, []>("gather_2_axis_0"), val = tensor<int32, []>(0)];
            tensor<int32, []> gather_2_batch_dims_0 = const()[name = tensor<string, []>("gather_2_batch_dims_0"), val = tensor<int32, []>(0)];
            tensor<int32, []> gather_2 = gather(axis = gather_2_axis_0, batch_dims = gather_2_batch_dims_0, indices = gather_2_indices_0, x = var_64_shape_cast_fp16)[name = tensor<string, []>("gather_2")];
            tensor<int32, []> const_1 = const()[name = tensor<string, []>("const_1"), val = tensor<int32, []>(0)];
            tensor<int32, []> const_2 = const()[name = tensor<string, []>("const_2"), val = tensor<int32, []>(1)];
            tensor<int32, [?]> mask_cond = range_1d(end = gather_2, start = const_1, step = const_2)[name = tensor<string, []>("mask_cond")];
            tensor<int32, []> var_66 = const()[name = tensor<string, []>("op_66"), val = tensor<int32, []>(1)];
            tensor<int32, [?]> var_67 = add(x = mask_cond, y = var_66)[name = tensor<string, []>("op_67")];
            tensor<int32, [2]> concat_2x = const()[name = tensor<string, []>("concat_2x"), val = tensor<int32, [2]>([-1, 1])];
            tensor<int32, [?, 1]> var_70 = reshape(shape = concat_2x, x = var_67)[name = tensor<string, []>("op_70")];
            tensor<bool, [?, ?]> var_71 = less(x = mask_cond, y = var_70)[name = tensor<string, []>("op_71")];
            tensor<fp16, []> cast_4_to_fp16 = const()[name = tensor<string, []>("cast_4_to_fp16"), val = tensor<fp16, []>(0x0p+0)];
            tensor<fp16, [?, ?]> mask_3_cast_fp16 = select(a = cast_4_to_fp16, b = mask_1_cast_fp16, cond = var_71)[name = tensor<string, []>("mask_3_cast_fp16")];
            tensor<int32, [1]> var_74_axes_0 = const()[name = tensor<string, []>("op_74_axes_0"), val = tensor<int32, [1]>([0])];
            tensor<fp16, [1, ?, ?]> var_74_cast_fp16 = expand_dims(axes = var_74_axes_0, x = mask_3_cast_fp16)[name = tensor<string, []>("op_74_cast_fp16")];
            tensor<int32, [1]> var_75_axes_0 = const()[name = tensor<string, []>("op_75_axes_0"), val = tensor<int32, [1]>([1])];
            tensor<fp16, [1, 1, ?, ?]> var_75_cast_fp16 = expand_dims(axes = var_75_axes_0, x = var_74_cast_fp16)[name = tensor<string, []>("op_75_cast_fp16")];
            tensor<int32, []> var_78 = add(x = gather_0, y = past_key_values_length)[name = tensor<string, []>("op_78")];
            tensor<int32, []> concat_3_axis_0 = const()[name = tensor<string, []>("concat_3_axis_0"), val = tensor<int32, []>(0)];
            tensor<bool, []> concat_3_interleave_0 = const()[name = tensor<string, []>("concat_3_interleave_0"), val = tensor<bool, []>(false)];
            tensor<int32, [4]> concat_3 = concat(axis = concat_3_axis_0, interleave = concat_3_interleave_0, values = (gather_1, var_22, gather_0, var_78))[name = tensor<string, []>("concat_3")];
            tensor<int32, [4]> shape_0_cast_fp16 = shape(x = var_75_cast_fp16)[name = tensor<string, []>("shape_0_cast_fp16")];
            tensor<int32, [4]> real_div_0 = real_div(x = concat_3, y = shape_0_cast_fp16)[name = tensor<string, []>("real_div_0")];
            tensor<fp16, [?, ?, ?, ?]> attention_mask_cast_fp16 = tile(reps = real_div_0, x = var_75_cast_fp16)[name = tensor<string, []>("attention_mask_cast_fp16")];
            tensor<int32, [1]> x_1_axes_0 = const()[name = tensor<string, []>("x_1_axes_0"), val = tensor<int32, [1]>([-1])];
            tensor<fp16, [768]> transformer_h_0_ln_1_weight_to_fp16 = const()[name = tensor<string, []>("transformer_h_0_ln_1_weight_to_fp16"), val = tensor<fp16, [768]>(BLOBFILE(path = tensor<string, []>("@model_path/weights/weight.bin"), offset = tensor<uint64, []>(9846144)))];
            tensor<fp16, [768]> transformer_h_0_ln_1_bias_to_fp16 = const()[name = tensor<string, []>("transformer_h_0_ln_1_bias_to_fp16"), val = tensor<fp16, [768]>(BLOBFILE(path = tensor<string, []>("@model_path/weights/weight.bin"), offset = tensor<uint64, []>(9847744)))];
            tensor<fp16, []> var_5_to_fp16 = const()[name = tensor<string, []>("op_5_to_fp16"), val = tensor<fp16, []>(0x1.5p-17)];
            tensor<fp16, [1, ?, 768]> x_1_cast_fp16 = layer_norm(axes = x_1_axes_0, beta = transformer_h_0_ln_1_bias_to_fp16, epsilon = var_5_to_fp16, gamma = transformer_h_0_ln_1_weight_to_fp16, x = input_3_cast_fp16)[name = tensor<string, []>("x_1_cast_fp16")];
            tensor<int32, [2]> var_99 = const()[name = tensor<string, []>("op_99"), val = tensor<int32, [2]>([-1, 768])];
            tensor<fp16, [?, 768]> var_100_cast_fp16 = reshape(shape = var_99, x = x_1_cast_fp16)[name = tensor<string, []>("op_100_cast_fp16")];
            tensor<fp16, [2304, 768]> transpose_0_cast_fp16_to_fp32_to_fp16_palettized = constexpr_lut_to_dense()[indices = tensor<uint8, [442368]>(BLOBFILE(path = tensor<string, []>("@model_path/weights/weight.bin"), offset = tensor<uint64, []>(9849344))), lut = tensor<fp16, [4]>([-0x1.81cp-2, -0x1.2c8p-4, 0x1.4p-4, 0x1.864p-2]), name = tensor<string, []>("transpose_0_cast_fp16_to_fp32_to_fp16_palettized"), shape = tensor<uint32, [2]>([2304, 768])];
            tensor<fp16, [2304]> x_3_bias_0_to_fp16 = const()[name = tensor<string, []>("x_3_bias_0_to_fp16"), val = tensor<fp16, [2304]>(BLOBFILE(path = tensor<string, []>("@model_path/weights/weight.bin"), offset = tensor<uint64, []>(10291776)))];
            tensor<fp16, [?, 2304]> x_3_cast_fp16 = linear(bias = x_3_bias_0_to_fp16, weight = transpose_0_cast_fp16_to_fp32_to_fp16_palettized, x = var_100_cast_fp16)[name = tensor<string, []>("x_3_cast_fp16")];
            tensor<int32, [3]> concat_4x = const()[name = tensor<string, []>("concat_4x"), val = tensor<int32, [3]>([1, -1, 2304])];
            tensor<fp16, [1, ?, 2304]> var_103_cast_fp16 = reshape(shape = concat_4x, x = x_3_cast_fp16)[name = tensor<string, []>("op_103_cast_fp16")];
            tensor<int32, [3]> tile_0 = const()[name = tensor<string, []>("tile_0"), val = tensor<int32, [3]>([768, 768, 768])];
            tensor<int32, []> var_104_axis_0 = const()[name = tensor<string, []>("op_104_axis_0"), val = tensor<int32, []>(2)];
            tensor<fp16, [1, ?, 768]> var_104_cast_fp16_0, tensor<fp16, [1, ?, 768]> var_104_cast_fp16_1, tensor<fp16, [1, ?, 768]> var_104_cast_fp16_2 = split(axis = var_104_axis_0, split_sizes = tile_0, x = var_103_cast_fp16)[name = tensor<string, []>("op_104_cast_fp16")];
            tensor<int32, [4]> concat_5x = const()[name = tensor<string, []>("concat_5x"), val = tensor<int32, [4]>([1, -1, 12, 64])];
            tensor<fp16, [1, ?, 12, 64]> var_113_cast_fp16 = reshape(shape = concat_5x, x = var_104_cast_fp16_0)[name = tensor<string, []>("op_113_cast_fp16")];
            tensor<int32, [4]> query_1_perm_0 = const()[name = tensor<string, []>("query_1_perm_0"), val = tensor<int32, [4]>([0, 2, 1, 3])];
            tensor<int32, [4]> concat_6x = const()[name = tensor<string, []>("concat_6x"), val = tensor<int32, [4]>([1, -1, 12, 64])];
            tensor<fp16, [1, ?, 12, 64]> var_116_cast_fp16 = reshape(shape = concat_6x, x = var_104_cast_fp16_1)[name = tensor<string, []>("op_116_cast_fp16")];
            tensor<int32, [4]> key_1_perm_0 = const()[name = tensor<string, []>("key_1_perm_0"), val = tensor<int32, [4]>([0, 2, -3, -1])];
            tensor<string, []> key_1_cast_fp16_to_fp32_dtype_0 = const()[name = tensor<string, []>("key_1_cast_fp16_to_fp32_dtype_0"), val = tensor<string, []>("fp32")];
            tensor<int32, [4]> concat_7x = const()[name = tensor<string, []>("concat_7x"), val = tensor<int32, [4]>([1, -1, 12, 64])];
            tensor<fp16, [1, ?, 12, 64]> var_119_cast_fp16 = reshape(shape = concat_7x, x = var_104_cast_fp16_2)[name = tensor<string, []>("op_119_cast_fp16")];
            tensor<int32, [4]> value_1_perm_0 = const()[name = tensor<string, []>("value_1_perm_0"), val = tensor<int32, [4]>([0, 2, -3, -1])];
            tensor<string, []> value_1_cast_fp16_to_fp32_dtype_0 = const()[name = tensor<string, []>("value_1_cast_fp16_to_fp32_dtype_0"), val = tensor<string, []>("fp32")];
            tensor<fp16, [1, 12, ?, 64]> key_1_cast_fp16 = transpose(perm = key_1_perm_0, x = var_116_cast_fp16)[name = tensor<string, []>("transpose_31")];
            tensor<int32, [4]> var_121_shape_cast_fp16 = shape(x = key_1_cast_fp16)[name = tensor<string, []>("op_121_shape_cast_fp16")];
            tensor<int32, []> gather_13_indices_0 = const()[name = tensor<string, []>("gather_13_indices_0"), val = tensor<int32, []>(2)];
            tensor<int32, []> gather_13_axis_0 = const()[name = tensor<string, []>("gather_13_axis_0"), val = tensor<int32, []>(0)];
            tensor<int32, []> gather_13_batch_dims_0 = const()[name = tensor<string, []>("gather_13_batch_dims_0"), val = tensor<int32, []>(0)];
            tensor<int32, []> gather_13 = gather(axis = gather_13_axis_0, batch_dims = gather_13_batch_dims_0, indices = gather_13_indices_0, x = var_121_shape_cast_fp16)[name = tensor<string, []>("gather_13")];
            tensor<int32, []> concat_8_values0_0 = const()[name = tensor<string, []>("concat_8_values0_0"), val = tensor<int32, []>(0)];
            tensor<int32, []> concat_8_values1_0 = const()[name = tensor<string, []>("concat_8_values1_0"), val = tensor<int32, []>(0)];
            tensor<int32, []> concat_8_values2_0 = const()[name = tensor<string, []>("concat_8_values2_0"), val = tensor<int32, []>(0)];
            tensor<int32, []> concat_8_axis_0 = const()[name = tensor<string, []>("concat_8_axis_0"), val = tensor<int32, []>(0)];
            tensor<bool, []> concat_8_interleave_0 = const()[name = tensor<string, []>("concat_8_interleave_0"), val = tensor<bool, []>(false)];
            tensor<int32, [4]> concat_8 = concat(axis = concat_8_axis_0, interleave = concat_8_interleave_0, values = (concat_8_values0_0, concat_8_values1_0, concat_8_values2_0, gather_13))[name = tensor<string, []>("concat_8")];
            tensor<int32, [4]> causal_mask_1_begin_0 = const()[name = tensor<string, []>("causal_mask_1_begin_0"), val = tensor<int32, [4]>([0, 0, 0, 0])];
            tensor<bool, [4]> causal_mask_1_end_mask_0 = const()[name = tensor<string, []>("causal_mask_1_end_mask_0"), val = tensor<bool, [4]>([true, true, true, false])];
            tensor<fp16, [?, ?, ?, ?]> causal_mask_1_cast_fp16 = slice_by_index(begin = causal_mask_1_begin_0, end = concat_8, end_mask = causal_mask_1_end_mask_0, x = attention_mask_cast_fp16)[name = tensor<string, []>("causal_mask_1_cast_fp16")];
            tensor<fp16, []> mul_2_y_0_to_fp16 = const()[name = tensor<string, []>("mul_2_y_0_to_fp16"), val = tensor<fp16, []>(0x1p-3)];
            tensor<fp16, [1, 12, ?, 64]> query_1_cast_fp16 = transpose(perm = query_1_perm_0, x = var_113_cast_fp16)[name = tensor<string, []>("transpose_30")];
            tensor<fp16, [1, 12, ?, 64]> mul_2_cast_fp16 = mul(x = query_1_cast_fp16, y = mul_2_y_0_to_fp16)[name = tensor<string, []>("mul_2_cast_fp16")];
            tensor<bool, []> matmul_1_transpose_y_0 = const()[name = tensor<string, []>("matmul_1_transpose_y_0"), val = tensor<bool, []>(true)];
            tensor<bool, []> matmul_1_transpose_x_0 = const()[name = tensor<string, []>("matmul_1_transpose_x_0"), val = tensor<bool, []>(false)];
            tensor<fp16, [1, 12, ?, ?]> matmul_1_cast_fp16 = matmul(transpose_x = matmul_1_transpose_x_0, transpose_y = matmul_1_transpose_y_0, x = mul_2_cast_fp16, y = key_1_cast_fp16)[name = tensor<string, []>("matmul_1_cast_fp16")];
            tensor<fp16, [?, 12, ?, ?]> add_0_cast_fp16 = add(x = matmul_1_cast_fp16, y = causal_mask_1_cast_fp16)[name = tensor<string, []>("add_0_cast_fp16")];
            tensor<int32, []> softmax_0_axis_0 = const()[name = tensor<string, []>("softmax_0_axis_0"), val = tensor<int32, []>(-1)];
            tensor<fp16, [?, 12, ?, ?]> softmax_0_cast_fp16 = softmax(axis = softmax_0_axis_0, x = add_0_cast_fp16)[name = tensor<string, []>("softmax_0_cast_fp16")];
            tensor<bool, []> attn_output_1_transpose_x_0 = const()[name = tensor<string, []>("attn_output_1_transpose_x_0"), val = tensor<bool, []>(false)];
            tensor<bool, []> attn_output_1_transpose_y_0 = const()[name = tensor<string, []>("attn_output_1_transpose_y_0"), val = tensor<bool, []>(false)];
            tensor<fp16, [1, 12, ?, 64]> value_1_cast_fp16 = transpose(perm = value_1_perm_0, x = var_119_cast_fp16)[name = tensor<string, []>("transpose_29")];
            tensor<fp16, [?, 12, ?, 64]> attn_output_1_cast_fp16 = matmul(transpose_x = attn_output_1_transpose_x_0, transpose_y = attn_output_1_transpose_y_0, x = softmax_0_cast_fp16, y = value_1_cast_fp16)[name = tensor<string, []>("attn_output_1_cast_fp16")];
            tensor<int32, [4]> var_130_perm_0 = const()[name = tensor<string, []>("op_130_perm_0"), val = tensor<int32, [4]>([0, 2, 1, 3])];
            tensor<fp16, [?, ?, 12, 64]> var_130_cast_fp16 = transpose(perm = var_130_perm_0, x = attn_output_1_cast_fp16)[name = tensor<string, []>("transpose_28")];
            tensor<int32, [4]> var_132_shape_cast_fp16 = shape(x = var_130_cast_fp16)[name = tensor<string, []>("op_132_shape_cast_fp16")];
            tensor<int32, []> gather_14_indices_0 = const()[name = tensor<string, []>("gather_14_indices_0"), val = tensor<int32, []>(0)];
            tensor<int32, []> gather_14_axis_0 = const()[name = tensor<string, []>("gather_14_axis_0"), val = tensor<int32, []>(0)];
            tensor<int32, []> gather_14_batch_dims_0 = const()[name = tensor<string, []>("gather_14_batch_dims_0"), val = tensor<int32, []>(0)];
            tensor<int32, []> gather_14 = gather(axis = gather_14_axis_0, batch_dims = gather_14_batch_dims_0, indices = gather_14_indices_0, x = var_132_shape_cast_fp16)[name = tensor<string, []>("gather_14")];
            tensor<int32, []> gather_15_indices_0 = const()[name = tensor<string, []>("gather_15_indices_0"), val = tensor<int32, []>(1)];
            tensor<int32, []> gather_15_axis_0 = const()[name = tensor<string, []>("gather_15_axis_0"), val = tensor<int32, []>(0)];
            tensor<int32, []> gather_15_batch_dims_0 = const()[name = tensor<string, []>("gather_15_batch_dims_0"), val = tensor<int32, []>(0)];
            tensor<int32, []> gather_15 = gather(axis = gather_15_axis_0, batch_dims = gather_15_batch_dims_0, indices = gather_15_indices_0, x = var_132_shape_cast_fp16)[name = tensor<string, []>("gather_15")];
            tensor<int32, []> concat_9_axis_0 = const()[name = tensor<string, []>("concat_9_axis_0"), val = tensor<int32, []>(0)];
            tensor<bool, []> concat_9_interleave_0 = const()[name = tensor<string, []>("concat_9_interleave_0"), val = tensor<bool, []>(false)];
            tensor<int32, [3]> concat_9 = concat(axis = concat_9_axis_0, interleave = concat_9_interleave_0, values = (gather_14, gather_15, var_23))[name = tensor<string, []>("concat_9")];
            tensor<fp16, [?, ?, 768]> var_135_cast_fp16 = reshape(shape = concat_9, x = var_130_cast_fp16)[name = tensor<string, []>("op_135_cast_fp16")];
            tensor<int32, [3]> var_139_shape_cast_fp16 = shape(x = var_135_cast_fp16)[name = tensor<string, []>("op_139_shape_cast_fp16")];
            tensor<int32, []> gather_16_indices_0 = const()[name = tensor<string, []>("gather_16_indices_0"), val = tensor<int32, []>(0)];
            tensor<int32, []> gather_16_axis_0 = const()[name = tensor<string, []>("gather_16_axis_0"), val = tensor<int32, []>(0)];
            tensor<int32, []> gather_16_batch_dims_0 = const()[name = tensor<string, []>("gather_16_batch_dims_0"), val = tensor<int32, []>(0)];
            tensor<int32, []> gather_16 = gather(axis = gather_16_axis_0, batch_dims = gather_16_batch_dims_0, indices = gather_16_indices_0, x = var_139_shape_cast_fp16)[name = tensor<string, []>("gather_16")];
            tensor<int32, []> gather_17_indices_0 = const()[name = tensor<string, []>("gather_17_indices_0"), val = tensor<int32, []>(1)];
            tensor<int32, []> gather_17_axis_0 = const()[name = tensor<string, []>("gather_17_axis_0"), val = tensor<int32, []>(0)];
            tensor<int32, []> gather_17_batch_dims_0 = const()[name = tensor<string, []>("gather_17_batch_dims_0"), val = tensor<int32, []>(0)];
            tensor<int32, []> gather_17 = gather(axis = gather_17_axis_0, batch_dims = gather_17_batch_dims_0, indices = gather_17_indices_0, x = var_139_shape_cast_fp16)[name = tensor<string, []>("gather_17")];
            tensor<int32, [2]> var_142 = const()[name = tensor<string, []>("op_142"), val = tensor<int32, [2]>([-1, 768])];
            tensor<fp16, [?, 768]> var_143_cast_fp16 = reshape(shape = var_142, x = var_135_cast_fp16)[name = tensor<string, []>("op_143_cast_fp16")];
            tensor<fp16, [768, 768]> transpose_1_cast_fp16_to_fp32_to_fp16_palettized = constexpr_lut_to_dense()[indices = tensor<uint8, [147456]>(BLOBFILE(path = tensor<string, []>("@model_path/weights/weight.bin"), offset = tensor<uint64, []>(10296448))), lut = tensor<fp16, [4]>([-0x1.2acp-1, -0x1.a28p-3, 0x1.814p-8, 0x1.5ap-2]), name = tensor<string, []>("transpose_1_cast_fp16_to_fp32_to_fp16_palettized"), shape = tensor<uint32, [2]>([768, 768])];
            tensor<fp16, [768]> x_7_bias_0_to_fp16 = const()[name = tensor<string, []>("x_7_bias_0_to_fp16"), val = tensor<fp16, [768]>(BLOBFILE(path = tensor<string, []>("@model_path/weights/weight.bin"), offset = tensor<uint64, []>(10443968)))];
            tensor<fp16, [?, 768]> x_7_cast_fp16 = linear(bias = x_7_bias_0_to_fp16, weight = transpose_1_cast_fp16_to_fp32_to_fp16_palettized, x = var_143_cast_fp16)[name = tensor<string, []>("x_7_cast_fp16")];
            tensor<int32, []> concat_10_axis_0 = const()[name = tensor<string, []>("concat_10_axis_0"), val = tensor<int32, []>(0)];
            tensor<bool, []> concat_10_interleave_0 = const()[name = tensor<string, []>("concat_10_interleave_0"), val = tensor<bool, []>(false)];
            tensor<int32, [3]> concat_10 = concat(axis = concat_10_axis_0, interleave = concat_10_interleave_0, values = (gather_16, gather_17, var_6))[name = tensor<string, []>("concat_10")];
            tensor<fp16, [?, ?, 768]> input_5_cast_fp16 = reshape(shape = concat_10, x = x_7_cast_fp16)[name = tensor<string, []>("input_5_cast_fp16")];
            tensor<fp16, [?, ?, 768]> input_7_cast_fp16 = add(x = input_5_cast_fp16, y = input_3_cast_fp16)[name = tensor<string, []>("input_7_cast_fp16")];
            tensor<int32, [1]> x_9_axes_0 = const()[name = tensor<string, []>("x_9_axes_0"), val = tensor<int32, [1]>([-1])];
            tensor<fp16, [768]> transformer_h_0_ln_2_weight_to_fp16 = const()[name = tensor<string, []>("transformer_h_0_ln_2_weight_to_fp16"), val = tensor<fp16, [768]>(BLOBFILE(path = tensor<string, []>("@model_path/weights/weight.bin"), offset = tensor<uint64, []>(10445568)))];
            tensor<fp16, [768]> transformer_h_0_ln_2_bias_to_fp16 = const()[name = tensor<string, []>("transformer_h_0_ln_2_bias_to_fp16"), val = tensor<fp16, [768]>(BLOBFILE(path = tensor<string, []>("@model_path/weights/weight.bin"), offset = tensor<uint64, []>(10447168)))];
            tensor<fp16, [?, ?, 768]> x_9_cast_fp16 = layer_norm(axes = x_9_axes_0, beta = transformer_h_0_ln_2_bias_to_fp16, epsilon = var_5_to_fp16, gamma = transformer_h_0_ln_2_weight_to_fp16, x = input_7_cast_fp16)[name = tensor<string, []>("x_9_cast_fp16")];
            tensor<int32, [3]> var_161_shape_cast_fp16 = shape(x = x_9_cast_fp16)[name = tensor<string, []>("op_161_shape_cast_fp16")];
            tensor<int32, []> gather_19_indices_0 = const()[name = tensor<string, []>("gather_19_indices_0"), val = tensor<int32, []>(0)];
            tensor<int32, []> gather_19_axis_0 = const()[name = tensor<string, []>("gather_19_axis_0"), val = tensor<int32, []>(0)];
            tensor<int32, []> gather_19_batch_dims_0 = const()[name = tensor<string, []>("gather_19_batch_dims_0"), val = tensor<int32, []>(0)];
            tensor<int32, []> gather_19 = gather(axis = gather_19_axis_0, batch_dims = gather_19_batch_dims_0, indices = gather_19_indices_0, x = var_161_shape_cast_fp16)[name = tensor<string, []>("gather_19")];
            tensor<int32, []> gather_20_indices_0 = const()[name = tensor<string, []>("gather_20_indices_0"), val = tensor<int32, []>(1)];
            tensor<int32, []> gather_20_axis_0 = const()[name = tensor<string, []>("gather_20_axis_0"), val = tensor<int32, []>(0)];
            tensor<int32, []> gather_20_batch_dims_0 = const()[name = tensor<string, []>("gather_20_batch_dims_0"), val = tensor<int32, []>(0)];
            tensor<int32, []> gather_20 = gather(axis = gather_20_axis_0, batch_dims = gather_20_batch_dims_0, indices = gather_20_indices_0, x = var_161_shape_cast_fp16)[name = tensor<string, []>("gather_20")];
            tensor<int32, [2]> var_164 = const()[name = tensor<string, []>("op_164"), val = tensor<int32, [2]>([-1, 768])];
            tensor<fp16, [?, 768]> var_165_cast_fp16 = reshape(shape = var_164, x = x_9_cast_fp16)[name = tensor<string, []>("op_165_cast_fp16")];
            tensor<fp16, [3072, 768]> transpose_2_cast_fp16_to_fp32_to_fp16_palettized = constexpr_lut_to_dense()[indices = tensor<uint8, [589824]>(BLOBFILE(path = tensor<string, []>("@model_path/weights/weight.bin"), offset = tensor<uint64, []>(10448768))), lut = tensor<fp16, [4]>([-0x1.e94p-3, -0x1.f7cp-5, 0x1.ee4p-5, 0x1.e4cp-3]), name = tensor<string, []>("transpose_2_cast_fp16_to_fp32_to_fp16_palettized"), shape = tensor<uint32, [2]>([3072, 768])];
            tensor<fp16, [3072]> x_11_bias_0_to_fp16 = const()[name = tensor<string, []>("x_11_bias_0_to_fp16"), val = tensor<fp16, [3072]>(BLOBFILE(path = tensor<string, []>("@model_path/weights/weight.bin"), offset = tensor<uint64, []>(11038656)))];
            tensor<fp16, [?, 3072]> x_11_cast_fp16 = linear(bias = x_11_bias_0_to_fp16, weight = transpose_2_cast_fp16_to_fp32_to_fp16_palettized, x = var_165_cast_fp16)[name = tensor<string, []>("x_11_cast_fp16")];
            tensor<int32, []> concat_11_axis_0 = const()[name = tensor<string, []>("concat_11_axis_0"), val = tensor<int32, []>(0)];
            tensor<bool, []> concat_11_interleave_0 = const()[name = tensor<string, []>("concat_11_interleave_0"), val = tensor<bool, []>(false)];
            tensor<int32, [3]> concat_11 = concat(axis = concat_11_axis_0, interleave = concat_11_interleave_0, values = (gather_19, gather_20, var_11))[name = tensor<string, []>("concat_11")];
            tensor<fp16, [?, ?, 3072]> input_9_cast_fp16 = reshape(shape = concat_11, x = x_11_cast_fp16)[name = tensor<string, []>("input_9_cast_fp16")];
            tensor<string, []> x_13_mode_0 = const()[name = tensor<string, []>("x_13_mode_0"), val = tensor<string, []>("TANH_APPROXIMATION")];
            tensor<fp16, [?, ?, 3072]> x_13_cast_fp16 = gelu(mode = x_13_mode_0, x = input_9_cast_fp16)[name = tensor<string, []>("x_13_cast_fp16")];
            tensor<int32, [3]> var_183_shape_cast_fp16 = shape(x = x_13_cast_fp16)[name = tensor<string, []>("op_183_shape_cast_fp16")];
            tensor<int32, []> gather_22_indices_0 = const()[name = tensor<string, []>("gather_22_indices_0"), val = tensor<int32, []>(0)];
            tensor<int32, []> gather_22_axis_0 = const()[name = tensor<string, []>("gather_22_axis_0"), val = tensor<int32, []>(0)];
            tensor<int32, []> gather_22_batch_dims_0 = const()[name = tensor<string, []>("gather_22_batch_dims_0"), val = tensor<int32, []>(0)];
            tensor<int32, []> gather_22 = gather(axis = gather_22_axis_0, batch_dims = gather_22_batch_dims_0, indices = gather_22_indices_0, x = var_183_shape_cast_fp16)[name = tensor<string, []>("gather_22")];
            tensor<int32, []> gather_23_indices_0 = const()[name = tensor<string, []>("gather_23_indices_0"), val = tensor<int32, []>(1)];
            tensor<int32, []> gather_23_axis_0 = const()[name = tensor<string, []>("gather_23_axis_0"), val = tensor<int32, []>(0)];
            tensor<int32, []> gather_23_batch_dims_0 = const()[name = tensor<string, []>("gather_23_batch_dims_0"), val = tensor<int32, []>(0)];
            tensor<int32, []> gather_23 = gather(axis = gather_23_axis_0, batch_dims = gather_23_batch_dims_0, indices = gather_23_indices_0, x = var_183_shape_cast_fp16)[name = tensor<string, []>("gather_23")];
            tensor<int32, [2]> var_186 = const()[name = tensor<string, []>("op_186"), val = tensor<int32, [2]>([-1, 3072])];
            tensor<fp16, [?, 3072]> var_187_cast_fp16 = reshape(shape = var_186, x = x_13_cast_fp16)[name = tensor<string, []>("op_187_cast_fp16")];
            tensor<fp16, [768, 3072]> transpose_3_cast_fp16_to_fp32_to_fp16_palettized = constexpr_lut_to_dense()[indices = tensor<uint8, [589824]>(BLOBFILE(path = tensor<string, []>("@model_path/weights/weight.bin"), offset = tensor<uint64, []>(11044864))), lut = tensor<fp16, [4]>([-0x1.13cp-3, -0x1.388p-5, 0x1.35p-5, 0x1.13p-3]), name = tensor<string, []>("transpose_3_cast_fp16_to_fp32_to_fp16_palettized"), shape = tensor<uint32, [2]>([768, 3072])];
            tensor<fp16, [768]> x_15_bias_0_to_fp16 = const()[name = tensor<string, []>("x_15_bias_0_to_fp16"), val = tensor<fp16, [768]>(BLOBFILE(path = tensor<string, []>("@model_path/weights/weight.bin"), offset = tensor<uint64, []>(11634752)))];
            tensor<fp16, [?, 768]> x_15_cast_fp16 = linear(bias = x_15_bias_0_to_fp16, weight = transpose_3_cast_fp16_to_fp32_to_fp16_palettized, x = var_187_cast_fp16)[name = tensor<string, []>("x_15_cast_fp16")];
            tensor<int32, []> concat_12_axis_0 = const()[name = tensor<string, []>("concat_12_axis_0"), val = tensor<int32, []>(0)];
            tensor<bool, []> concat_12_interleave_0 = const()[name = tensor<string, []>("concat_12_interleave_0"), val = tensor<bool, []>(false)];
            tensor<int32, [3]> concat_12 = concat(axis = concat_12_axis_0, interleave = concat_12_interleave_0, values = (gather_22, gather_23, var_6))[name = tensor<string, []>("concat_12")];
            tensor<fp16, [?, ?, 768]> input_11_cast_fp16 = reshape(shape = concat_12, x = x_15_cast_fp16)[name = tensor<string, []>("input_11_cast_fp16")];
            tensor<fp16, [?, ?, 768]> input_13_cast_fp16 = add(x = input_7_cast_fp16, y = input_11_cast_fp16)[name = tensor<string, []>("input_13_cast_fp16")];
            tensor<int32, [1]> x_17_axes_0 = const()[name = tensor<string, []>("x_17_axes_0"), val = tensor<int32, [1]>([-1])];
            tensor<fp16, [768]> transformer_h_1_ln_1_weight_to_fp16 = const()[name = tensor<string, []>("transformer_h_1_ln_1_weight_to_fp16"), val = tensor<fp16, [768]>(BLOBFILE(path = tensor<string, []>("@model_path/weights/weight.bin"), offset = tensor<uint64, []>(11636352)))];
            tensor<fp16, [768]> transformer_h_1_ln_1_bias_to_fp16 = const()[name = tensor<string, []>("transformer_h_1_ln_1_bias_to_fp16"), val = tensor<fp16, [768]>(BLOBFILE(path = tensor<string, []>("@model_path/weights/weight.bin"), offset = tensor<uint64, []>(11637952)))];
            tensor<fp16, [?, ?, 768]> x_17_cast_fp16 = layer_norm(axes = x_17_axes_0, beta = transformer_h_1_ln_1_bias_to_fp16, epsilon = var_5_to_fp16, gamma = transformer_h_1_ln_1_weight_to_fp16, x = input_13_cast_fp16)[name = tensor<string, []>("x_17_cast_fp16")];
            tensor<int32, [3]> var_209_shape_cast_fp16 = shape(x = x_17_cast_fp16)[name = tensor<string, []>("op_209_shape_cast_fp16")];
            tensor<int32, []> gather_25_indices_0 = const()[name = tensor<string, []>("gather_25_indices_0"), val = tensor<int32, []>(0)];
            tensor<int32, []> gather_25_axis_0 = const()[name = tensor<string, []>("gather_25_axis_0"), val = tensor<int32, []>(0)];
            tensor<int32, []> gather_25_batch_dims_0 = const()[name = tensor<string, []>("gather_25_batch_dims_0"), val = tensor<int32, []>(0)];
            tensor<int32, []> gather_25 = gather(axis = gather_25_axis_0, batch_dims = gather_25_batch_dims_0, indices = gather_25_indices_0, x = var_209_shape_cast_fp16)[name = tensor<string, []>("gather_25")];
            tensor<int32, []> gather_26_indices_0 = const()[name = tensor<string, []>("gather_26_indices_0"), val = tensor<int32, []>(1)];
            tensor<int32, []> gather_26_axis_0 = const()[name = tensor<string, []>("gather_26_axis_0"), val = tensor<int32, []>(0)];
            tensor<int32, []> gather_26_batch_dims_0 = const()[name = tensor<string, []>("gather_26_batch_dims_0"), val = tensor<int32, []>(0)];
            tensor<int32, []> gather_26 = gather(axis = gather_26_axis_0, batch_dims = gather_26_batch_dims_0, indices = gather_26_indices_0, x = var_209_shape_cast_fp16)[name = tensor<string, []>("gather_26")];
            tensor<int32, [2]> var_212 = const()[name = tensor<string, []>("op_212"), val = tensor<int32, [2]>([-1, 768])];
            tensor<fp16, [?, 768]> var_213_cast_fp16 = reshape(shape = var_212, x = x_17_cast_fp16)[name = tensor<string, []>("op_213_cast_fp16")];
            tensor<fp16, [2304, 768]> transpose_4_cast_fp16_to_fp32_to_fp16_palettized = constexpr_lut_to_dense()[indices = tensor<uint8, [442368]>(BLOBFILE(path = tensor<string, []>("@model_path/weights/weight.bin"), offset = tensor<uint64, []>(11639552))), lut = tensor<fp16, [4]>([-0x1.05p-2, -0x1.f0cp-5, 0x1.f9p-5, 0x1.07p-2]), name = tensor<string, []>("transpose_4_cast_fp16_to_fp32_to_fp16_palettized"), shape = tensor<uint32, [2]>([2304, 768])];
            tensor<fp16, [2304]> x_19_bias_0_to_fp16 = const()[name = tensor<string, []>("x_19_bias_0_to_fp16"), val = tensor<fp16, [2304]>(BLOBFILE(path = tensor<string, []>("@model_path/weights/weight.bin"), offset = tensor<uint64, []>(12081984)))];
            tensor<fp16, [?, 2304]> x_19_cast_fp16 = linear(bias = x_19_bias_0_to_fp16, weight = transpose_4_cast_fp16_to_fp32_to_fp16_palettized, x = var_213_cast_fp16)[name = tensor<string, []>("x_19_cast_fp16")];
            tensor<int32, []> concat_13_axis_0 = const()[name = tensor<string, []>("concat_13_axis_0"), val = tensor<int32, []>(0)];
            tensor<bool, []> concat_13_interleave_0 = const()[name = tensor<string, []>("concat_13_interleave_0"), val = tensor<bool, []>(false)];
            tensor<int32, [3]> concat_13 = concat(axis = concat_13_axis_0, interleave = concat_13_interleave_0, values = (gather_25, gather_26, var_9))[name = tensor<string, []>("concat_13")];
            tensor<fp16, [?, ?, 2304]> var_216_cast_fp16 = reshape(shape = concat_13, x = x_19_cast_fp16)[name = tensor<string, []>("op_216_cast_fp16")];
            tensor<int32, [3]> tile_1 = const()[name = tensor<string, []>("tile_1"), val = tensor<int32, [3]>([768, 768, 768])];
            tensor<int32, []> var_217_axis_0 = const()[name = tensor<string, []>("op_217_axis_0"), val = tensor<int32, []>(2)];
            tensor<fp16, [?, ?, 768]> var_217_cast_fp16_0, tensor<fp16, [?, ?, 768]> var_217_cast_fp16_1, tensor<fp16, [?, ?, 768]> var_217_cast_fp16_2 = split(axis = var_217_axis_0, split_sizes = tile_1, x = var_216_cast_fp16)[name = tensor<string, []>("op_217_cast_fp16")];
            tensor<int32, [3]> var_221_shape_cast_fp16 = shape(x = var_217_cast_fp16_0)[name = tensor<string, []>("op_221_shape_cast_fp16")];
            tensor<int32, []> gather_29_indices_0 = const()[name = tensor<string, []>("gather_29_indices_0"), val = tensor<int32, []>(0)];
            tensor<int32, []> gather_29_axis_0 = const()[name = tensor<string, []>("gather_29_axis_0"), val = tensor<int32, []>(0)];
            tensor<int32, []> gather_29_batch_dims_0 = const()[name = tensor<string, []>("gather_29_batch_dims_0"), val = tensor<int32, []>(0)];
            tensor<int32, []> gather_29 = gather(axis = gather_29_axis_0, batch_dims = gather_29_batch_dims_0, indices = gather_29_indices_0, x = var_221_shape_cast_fp16)[name = tensor<string, []>("gather_29")];
            tensor<int32, []> gather_30_indices_0 = const()[name = tensor<string, []>("gather_30_indices_0"), val = tensor<int32, []>(1)];
            tensor<int32, []> gather_30_axis_0 = const()[name = tensor<string, []>("gather_30_axis_0"), val = tensor<int32, []>(0)];
            tensor<int32, []> gather_30_batch_dims_0 = const()[name = tensor<string, []>("gather_30_batch_dims_0"), val = tensor<int32, []>(0)];
            tensor<int32, []> gather_30 = gather(axis = gather_30_axis_0, batch_dims = gather_30_batch_dims_0, indices = gather_30_indices_0, x = var_221_shape_cast_fp16)[name = tensor<string, []>("gather_30")];
            tensor<int32, [3]> var_223_shape_cast_fp16 = shape(x = var_217_cast_fp16_1)[name = tensor<string, []>("op_223_shape_cast_fp16")];
            tensor<int32, []> gather_31_indices_0 = const()[name = tensor<string, []>("gather_31_indices_0"), val = tensor<int32, []>(0)];
            tensor<int32, []> gather_31_axis_0 = const()[name = tensor<string, []>("gather_31_axis_0"), val = tensor<int32, []>(0)];
            tensor<int32, []> gather_31_batch_dims_0 = const()[name = tensor<string, []>("gather_31_batch_dims_0"), val = tensor<int32, []>(0)];
            tensor<int32, []> gather_31 = gather(axis = gather_31_axis_0, batch_dims = gather_31_batch_dims_0, indices = gather_31_indices_0, x = var_223_shape_cast_fp16)[name = tensor<string, []>("gather_31")];
            tensor<int32, [3]> var_224_shape_cast_fp16 = shape(x = var_217_cast_fp16_1)[name = tensor<string, []>("op_224_shape_cast_fp16")];
            tensor<int32, []> gather_32_indices_0 = const()[name = tensor<string, []>("gather_32_indices_0"), val = tensor<int32, []>(1)];
            tensor<int32, []> gather_32_axis_0 = const()[name = tensor<string, []>("gather_32_axis_0"), val = tensor<int32, []>(0)];
            tensor<int32, []> gather_32_batch_dims_0 = const()[name = tensor<string, []>("gather_32_batch_dims_0"), val = tensor<int32, []>(0)];
            tensor<int32, []> gather_32 = gather(axis = gather_32_axis_0, batch_dims = gather_32_batch_dims_0, indices = gather_32_indices_0, x = var_224_shape_cast_fp16)[name = tensor<string, []>("gather_32")];
            tensor<int32, []> concat_14_axis_0 = const()[name = tensor<string, []>("concat_14_axis_0"), val = tensor<int32, []>(0)];
            tensor<bool, []> concat_14_interleave_0 = const()[name = tensor<string, []>("concat_14_interleave_0"), val = tensor<bool, []>(false)];
            tensor<int32, [4]> concat_14 = concat(axis = concat_14_axis_0, interleave = concat_14_interleave_0, values = (gather_29, gather_30, var_23, var_8))[name = tensor<string, []>("concat_14")];
            tensor<fp16, [?, ?, 12, 64]> var_226_cast_fp16 = reshape(shape = concat_14, x = var_217_cast_fp16_0)[name = tensor<string, []>("op_226_cast_fp16")];
            tensor<int32, [4]> query_5_perm_0 = const()[name = tensor<string, []>("query_5_perm_0"), val = tensor<int32, [4]>([0, 2, 1, 3])];
            tensor<int32, []> concat_15_axis_0 = const()[name = tensor<string, []>("concat_15_axis_0"), val = tensor<int32, []>(0)];
            tensor<bool, []> concat_15_interleave_0 = const()[name = tensor<string, []>("concat_15_interleave_0"), val = tensor<bool, []>(false)];
            tensor<int32, [4]> concat_15 = concat(axis = concat_15_axis_0, interleave = concat_15_interleave_0, values = (gather_31, gather_32, var_23, var_8))[name = tensor<string, []>("concat_15")];
            tensor<fp16, [?, ?, 12, 64]> var_229_cast_fp16 = reshape(shape = concat_15, x = var_217_cast_fp16_1)[name = tensor<string, []>("op_229_cast_fp16")];
            tensor<int32, [4]> key_5_perm_0 = const()[name = tensor<string, []>("key_5_perm_0"), val = tensor<int32, [4]>([0, 2, -3, -1])];
            tensor<string, []> key_5_cast_fp16_to_fp32_dtype_0 = const()[name = tensor<string, []>("key_5_cast_fp16_to_fp32_dtype_0"), val = tensor<string, []>("fp32")];
            tensor<fp16, [?, ?, 12, 64]> var_232_cast_fp16 = reshape(shape = concat_15, x = var_217_cast_fp16_2)[name = tensor<string, []>("op_232_cast_fp16")];
            tensor<int32, [4]> value_5_perm_0 = const()[name = tensor<string, []>("value_5_perm_0"), val = tensor<int32, [4]>([0, 2, -3, -1])];
            tensor<string, []> value_5_cast_fp16_to_fp32_dtype_0 = const()[name = tensor<string, []>("value_5_cast_fp16_to_fp32_dtype_0"), val = tensor<string, []>("fp32")];
            tensor<fp16, [?, 12, ?, 64]> key_5_cast_fp16 = transpose(perm = key_5_perm_0, x = var_229_cast_fp16)[name = tensor<string, []>("transpose_27")];
            tensor<int32, [4]> var_234_shape_cast_fp16 = shape(x = key_5_cast_fp16)[name = tensor<string, []>("op_234_shape_cast_fp16")];
            tensor<int32, []> gather_33_indices_0 = const()[name = tensor<string, []>("gather_33_indices_0"), val = tensor<int32, []>(2)];
            tensor<int32, []> gather_33_axis_0 = const()[name = tensor<string, []>("gather_33_axis_0"), val = tensor<int32, []>(0)];
            tensor<int32, []> gather_33_batch_dims_0 = const()[name = tensor<string, []>("gather_33_batch_dims_0"), val = tensor<int32, []>(0)];
            tensor<int32, []> gather_33 = gather(axis = gather_33_axis_0, batch_dims = gather_33_batch_dims_0, indices = gather_33_indices_0, x = var_234_shape_cast_fp16)[name = tensor<string, []>("gather_33")];
            tensor<int32, []> concat_17_values0_0 = const()[name = tensor<string, []>("concat_17_values0_0"), val = tensor<int32, []>(0)];
            tensor<int32, []> concat_17_values1_0 = const()[name = tensor<string, []>("concat_17_values1_0"), val = tensor<int32, []>(0)];
            tensor<int32, []> concat_17_values2_0 = const()[name = tensor<string, []>("concat_17_values2_0"), val = tensor<int32, []>(0)];
            tensor<int32, []> concat_17_axis_0 = const()[name = tensor<string, []>("concat_17_axis_0"), val = tensor<int32, []>(0)];
            tensor<bool, []> concat_17_interleave_0 = const()[name = tensor<string, []>("concat_17_interleave_0"), val = tensor<bool, []>(false)];
            tensor<int32, [4]> concat_17 = concat(axis = concat_17_axis_0, interleave = concat_17_interleave_0, values = (concat_17_values0_0, concat_17_values1_0, concat_17_values2_0, gather_33))[name = tensor<string, []>("concat_17")];
            tensor<int32, [4]> causal_mask_3_begin_0 = const()[name = tensor<string, []>("causal_mask_3_begin_0"), val = tensor<int32, [4]>([0, 0, 0, 0])];
            tensor<bool, [4]> causal_mask_3_end_mask_0 = const()[name = tensor<string, []>("causal_mask_3_end_mask_0"), val = tensor<bool, [4]>([true, true, true, false])];
            tensor<fp16, [?, ?, ?, ?]> causal_mask_3_cast_fp16 = slice_by_index(begin = causal_mask_3_begin_0, end = concat_17, end_mask = causal_mask_3_end_mask_0, x = attention_mask_cast_fp16)[name = tensor<string, []>("causal_mask_3_cast_fp16")];
            tensor<fp16, []> mul_5_y_0_to_fp16 = const()[name = tensor<string, []>("mul_5_y_0_to_fp16"), val = tensor<fp16, []>(0x1p-3)];
            tensor<fp16, [?, 12, ?, 64]> query_5_cast_fp16 = transpose(perm = query_5_perm_0, x = var_226_cast_fp16)[name = tensor<string, []>("transpose_26")];
            tensor<fp16, [?, 12, ?, 64]> mul_5_cast_fp16 = mul(x = query_5_cast_fp16, y = mul_5_y_0_to_fp16)[name = tensor<string, []>("mul_5_cast_fp16")];
            tensor<bool, []> matmul_6_transpose_y_0 = const()[name = tensor<string, []>("matmul_6_transpose_y_0"), val = tensor<bool, []>(true)];
            tensor<bool, []> matmul_6_transpose_x_0 = const()[name = tensor<string, []>("matmul_6_transpose_x_0"), val = tensor<bool, []>(false)];
            tensor<fp16, [?, 12, ?, ?]> matmul_6_cast_fp16 = matmul(transpose_x = matmul_6_transpose_x_0, transpose_y = matmul_6_transpose_y_0, x = mul_5_cast_fp16, y = key_5_cast_fp16)[name = tensor<string, []>("matmul_6_cast_fp16")];
            tensor<fp16, [?, 12, ?, ?]> add_1_cast_fp16 = add(x = matmul_6_cast_fp16, y = causal_mask_3_cast_fp16)[name = tensor<string, []>("add_1_cast_fp16")];
            tensor<int32, []> softmax_1_axis_0 = const()[name = tensor<string, []>("softmax_1_axis_0"), val = tensor<int32, []>(-1)];
            tensor<fp16, [?, 12, ?, ?]> softmax_1_cast_fp16 = softmax(axis = softmax_1_axis_0, x = add_1_cast_fp16)[name = tensor<string, []>("softmax_1_cast_fp16")];
            tensor<bool, []> attn_output_7_transpose_x_0 = const()[name = tensor<string, []>("attn_output_7_transpose_x_0"), val = tensor<bool, []>(false)];
            tensor<bool, []> attn_output_7_transpose_y_0 = const()[name = tensor<string, []>("attn_output_7_transpose_y_0"), val = tensor<bool, []>(false)];
            tensor<fp16, [?, 12, ?, 64]> value_5_cast_fp16 = transpose(perm = value_5_perm_0, x = var_232_cast_fp16)[name = tensor<string, []>("transpose_25")];
            tensor<fp16, [?, 12, ?, 64]> attn_output_7_cast_fp16 = matmul(transpose_x = attn_output_7_transpose_x_0, transpose_y = attn_output_7_transpose_y_0, x = softmax_1_cast_fp16, y = value_5_cast_fp16)[name = tensor<string, []>("attn_output_7_cast_fp16")];
            tensor<int32, [4]> var_243_perm_0 = const()[name = tensor<string, []>("op_243_perm_0"), val = tensor<int32, [4]>([0, 2, 1, 3])];
            tensor<fp16, [?, ?, 12, 64]> var_243_cast_fp16 = transpose(perm = var_243_perm_0, x = attn_output_7_cast_fp16)[name = tensor<string, []>("transpose_24")];
            tensor<int32, [4]> var_245_shape_cast_fp16 = shape(x = var_243_cast_fp16)[name = tensor<string, []>("op_245_shape_cast_fp16")];
            tensor<int32, []> gather_34_indices_0 = const()[name = tensor<string, []>("gather_34_indices_0"), val = tensor<int32, []>(0)];
            tensor<int32, []> gather_34_axis_0 = const()[name = tensor<string, []>("gather_34_axis_0"), val = tensor<int32, []>(0)];
            tensor<int32, []> gather_34_batch_dims_0 = const()[name = tensor<string, []>("gather_34_batch_dims_0"), val = tensor<int32, []>(0)];
            tensor<int32, []> gather_34 = gather(axis = gather_34_axis_0, batch_dims = gather_34_batch_dims_0, indices = gather_34_indices_0, x = var_245_shape_cast_fp16)[name = tensor<string, []>("gather_34")];
            tensor<int32, []> gather_35_indices_0 = const()[name = tensor<string, []>("gather_35_indices_0"), val = tensor<int32, []>(1)];
            tensor<int32, []> gather_35_axis_0 = const()[name = tensor<string, []>("gather_35_axis_0"), val = tensor<int32, []>(0)];
            tensor<int32, []> gather_35_batch_dims_0 = const()[name = tensor<string, []>("gather_35_batch_dims_0"), val = tensor<int32, []>(0)];
            tensor<int32, []> gather_35 = gather(axis = gather_35_axis_0, batch_dims = gather_35_batch_dims_0, indices = gather_35_indices_0, x = var_245_shape_cast_fp16)[name = tensor<string, []>("gather_35")];
            tensor<int32, []> concat_18_axis_0 = const()[name = tensor<string, []>("concat_18_axis_0"), val = tensor<int32, []>(0)];
            tensor<bool, []> concat_18_interleave_0 = const()[name = tensor<string, []>("concat_18_interleave_0"), val = tensor<bool, []>(false)];
            tensor<int32, [3]> concat_18 = concat(axis = concat_18_axis_0, interleave = concat_18_interleave_0, values = (gather_34, gather_35, var_23))[name = tensor<string, []>("concat_18")];
            tensor<fp16, [?, ?, 768]> var_248_cast_fp16 = reshape(shape = concat_18, x = var_243_cast_fp16)[name = tensor<string, []>("op_248_cast_fp16")];
            tensor<int32, [3]> var_252_shape_cast_fp16 = shape(x = var_248_cast_fp16)[name = tensor<string, []>("op_252_shape_cast_fp16")];
            tensor<int32, []> gather_36_indices_0 = const()[name = tensor<string, []>("gather_36_indices_0"), val = tensor<int32, []>(0)];
            tensor<int32, []> gather_36_axis_0 = const()[name = tensor<string, []>("gather_36_axis_0"), val = tensor<int32, []>(0)];
            tensor<int32, []> gather_36_batch_dims_0 = const()[name = tensor<string, []>("gather_36_batch_dims_0"), val = tensor<int32, []>(0)];
            tensor<int32, []> gather_36 = gather(axis = gather_36_axis_0, batch_dims = gather_36_batch_dims_0, indices = gather_36_indices_0, x = var_252_shape_cast_fp16)[name = tensor<string, []>("gather_36")];
            tensor<int32, []> gather_37_indices_0 = const()[name = tensor<string, []>("gather_37_indices_0"), val = tensor<int32, []>(1)];
            tensor<int32, []> gather_37_axis_0 = const()[name = tensor<string, []>("gather_37_axis_0"), val = tensor<int32, []>(0)];
            tensor<int32, []> gather_37_batch_dims_0 = const()[name = tensor<string, []>("gather_37_batch_dims_0"), val = tensor<int32, []>(0)];
            tensor<int32, []> gather_37 = gather(axis = gather_37_axis_0, batch_dims = gather_37_batch_dims_0, indices = gather_37_indices_0, x = var_252_shape_cast_fp16)[name = tensor<string, []>("gather_37")];
            tensor<int32, [2]> var_255 = const()[name = tensor<string, []>("op_255"), val = tensor<int32, [2]>([-1, 768])];
            tensor<fp16, [?, 768]> var_256_cast_fp16 = reshape(shape = var_255, x = var_248_cast_fp16)[name = tensor<string, []>("op_256_cast_fp16")];
            tensor<fp16, [768, 768]> transpose_5_cast_fp16_to_fp32_to_fp16_palettized = constexpr_lut_to_dense()[indices = tensor<uint8, [147456]>(BLOBFILE(path = tensor<string, []>("@model_path/weights/weight.bin"), offset = tensor<uint64, []>(12086656))), lut = tensor<fp16, [4]>([-0x1.87cp+0, -0x1.b64p-4, 0x1.848p-9, 0x1.dc8p-4]), name = tensor<string, []>("transpose_5_cast_fp16_to_fp32_to_fp16_palettized"), shape = tensor<uint32, [2]>([768, 768])];
            tensor<fp16, [768]> x_23_bias_0_to_fp16 = const()[name = tensor<string, []>("x_23_bias_0_to_fp16"), val = tensor<fp16, [768]>(BLOBFILE(path = tensor<string, []>("@model_path/weights/weight.bin"), offset = tensor<uint64, []>(12234176)))];
            tensor<fp16, [?, 768]> x_23_cast_fp16 = linear(bias = x_23_bias_0_to_fp16, weight = transpose_5_cast_fp16_to_fp32_to_fp16_palettized, x = var_256_cast_fp16)[name = tensor<string, []>("x_23_cast_fp16")];
            tensor<int32, []> concat_19_axis_0 = const()[name = tensor<string, []>("concat_19_axis_0"), val = tensor<int32, []>(0)];
            tensor<bool, []> concat_19_interleave_0 = const()[name = tensor<string, []>("concat_19_interleave_0"), val = tensor<bool, []>(false)];
            tensor<int32, [3]> concat_19 = concat(axis = concat_19_axis_0, interleave = concat_19_interleave_0, values = (gather_36, gather_37, var_6))[name = tensor<string, []>("concat_19")];
            tensor<fp16, [?, ?, 768]> input_15_cast_fp16 = reshape(shape = concat_19, x = x_23_cast_fp16)[name = tensor<string, []>("input_15_cast_fp16")];
            tensor<fp16, [?, ?, 768]> input_17_cast_fp16 = add(x = input_15_cast_fp16, y = input_13_cast_fp16)[name = tensor<string, []>("input_17_cast_fp16")];
            tensor<int32, [1]> x_25_axes_0 = const()[name = tensor<string, []>("x_25_axes_0"), val = tensor<int32, [1]>([-1])];
            tensor<fp16, [768]> transformer_h_1_ln_2_weight_to_fp16 = const()[name = tensor<string, []>("transformer_h_1_ln_2_weight_to_fp16"), val = tensor<fp16, [768]>(BLOBFILE(path = tensor<string, []>("@model_path/weights/weight.bin"), offset = tensor<uint64, []>(12235776)))];
            tensor<fp16, [768]> transformer_h_1_ln_2_bias_to_fp16 = const()[name = tensor<string, []>("transformer_h_1_ln_2_bias_to_fp16"), val = tensor<fp16, [768]>(BLOBFILE(path = tensor<string, []>("@model_path/weights/weight.bin"), offset = tensor<uint64, []>(12237376)))];
            tensor<fp16, [?, ?, 768]> x_25_cast_fp16 = layer_norm(axes = x_25_axes_0, beta = transformer_h_1_ln_2_bias_to_fp16, epsilon = var_5_to_fp16, gamma = transformer_h_1_ln_2_weight_to_fp16, x = input_17_cast_fp16)[name = tensor<string, []>("x_25_cast_fp16")];
            tensor<int32, [3]> var_274_shape_cast_fp16 = shape(x = x_25_cast_fp16)[name = tensor<string, []>("op_274_shape_cast_fp16")];
            tensor<int32, []> gather_39_indices_0 = const()[name = tensor<string, []>("gather_39_indices_0"), val = tensor<int32, []>(0)];
            tensor<int32, []> gather_39_axis_0 = const()[name = tensor<string, []>("gather_39_axis_0"), val = tensor<int32, []>(0)];
            tensor<int32, []> gather_39_batch_dims_0 = const()[name = tensor<string, []>("gather_39_batch_dims_0"), val = tensor<int32, []>(0)];
            tensor<int32, []> gather_39 = gather(axis = gather_39_axis_0, batch_dims = gather_39_batch_dims_0, indices = gather_39_indices_0, x = var_274_shape_cast_fp16)[name = tensor<string, []>("gather_39")];
            tensor<int32, []> gather_40_indices_0 = const()[name = tensor<string, []>("gather_40_indices_0"), val = tensor<int32, []>(1)];
            tensor<int32, []> gather_40_axis_0 = const()[name = tensor<string, []>("gather_40_axis_0"), val = tensor<int32, []>(0)];
            tensor<int32, []> gather_40_batch_dims_0 = const()[name = tensor<string, []>("gather_40_batch_dims_0"), val = tensor<int32, []>(0)];
            tensor<int32, []> gather_40 = gather(axis = gather_40_axis_0, batch_dims = gather_40_batch_dims_0, indices = gather_40_indices_0, x = var_274_shape_cast_fp16)[name = tensor<string, []>("gather_40")];
            tensor<int32, [2]> var_277 = const()[name = tensor<string, []>("op_277"), val = tensor<int32, [2]>([-1, 768])];
            tensor<fp16, [?, 768]> var_278_cast_fp16 = reshape(shape = var_277, x = x_25_cast_fp16)[name = tensor<string, []>("op_278_cast_fp16")];
            tensor<fp16, [3072, 768]> transpose_6_cast_fp16_to_fp32_to_fp16_palettized = constexpr_lut_to_dense()[indices = tensor<uint8, [589824]>(BLOBFILE(path = tensor<string, []>("@model_path/weights/weight.bin"), offset = tensor<uint64, []>(12238976))), lut = tensor<fp16, [4]>([-0x1.ab8p-3, -0x1.db4p-5, 0x1.ddcp-5, 0x1.af4p-3]), name = tensor<string, []>("transpose_6_cast_fp16_to_fp32_to_fp16_palettized"), shape = tensor<uint32, [2]>([3072, 768])];
            tensor<fp16, [3072]> x_27_bias_0_to_fp16 = const()[name = tensor<string, []>("x_27_bias_0_to_fp16"), val = tensor<fp16, [3072]>(BLOBFILE(path = tensor<string, []>("@model_path/weights/weight.bin"), offset = tensor<uint64, []>(12828864)))];
            tensor<fp16, [?, 3072]> x_27_cast_fp16 = linear(bias = x_27_bias_0_to_fp16, weight = transpose_6_cast_fp16_to_fp32_to_fp16_palettized, x = var_278_cast_fp16)[name = tensor<string, []>("x_27_cast_fp16")];
            tensor<int32, []> concat_20_axis_0 = const()[name = tensor<string, []>("concat_20_axis_0"), val = tensor<int32, []>(0)];
            tensor<bool, []> concat_20_interleave_0 = const()[name = tensor<string, []>("concat_20_interleave_0"), val = tensor<bool, []>(false)];
            tensor<int32, [3]> concat_20 = concat(axis = concat_20_axis_0, interleave = concat_20_interleave_0, values = (gather_39, gather_40, var_11))[name = tensor<string, []>("concat_20")];
            tensor<fp16, [?, ?, 3072]> input_19_cast_fp16 = reshape(shape = concat_20, x = x_27_cast_fp16)[name = tensor<string, []>("input_19_cast_fp16")];
            tensor<string, []> x_29_mode_0 = const()[name = tensor<string, []>("x_29_mode_0"), val = tensor<string, []>("TANH_APPROXIMATION")];
            tensor<fp16, [?, ?, 3072]> x_29_cast_fp16 = gelu(mode = x_29_mode_0, x = input_19_cast_fp16)[name = tensor<string, []>("x_29_cast_fp16")];
            tensor<int32, [3]> var_296_shape_cast_fp16 = shape(x = x_29_cast_fp16)[name = tensor<string, []>("op_296_shape_cast_fp16")];
            tensor<int32, []> gather_42_indices_0 = const()[name = tensor<string, []>("gather_42_indices_0"), val = tensor<int32, []>(0)];
            tensor<int32, []> gather_42_axis_0 = const()[name = tensor<string, []>("gather_42_axis_0"), val = tensor<int32, []>(0)];
            tensor<int32, []> gather_42_batch_dims_0 = const()[name = tensor<string, []>("gather_42_batch_dims_0"), val = tensor<int32, []>(0)];
            tensor<int32, []> gather_42 = gather(axis = gather_42_axis_0, batch_dims = gather_42_batch_dims_0, indices = gather_42_indices_0, x = var_296_shape_cast_fp16)[name = tensor<string, []>("gather_42")];
            tensor<int32, []> gather_43_indices_0 = const()[name = tensor<string, []>("gather_43_indices_0"), val = tensor<int32, []>(1)];
            tensor<int32, []> gather_43_axis_0 = const()[name = tensor<string, []>("gather_43_axis_0"), val = tensor<int32, []>(0)];
            tensor<int32, []> gather_43_batch_dims_0 = const()[name = tensor<string, []>("gather_43_batch_dims_0"), val = tensor<int32, []>(0)];
            tensor<int32, []> gather_43 = gather(axis = gather_43_axis_0, batch_dims = gather_43_batch_dims_0, indices = gather_43_indices_0, x = var_296_shape_cast_fp16)[name = tensor<string, []>("gather_43")];
            tensor<int32, [2]> var_299 = const()[name = tensor<string, []>("op_299"), val = tensor<int32, [2]>([-1, 3072])];
            tensor<fp16, [?, 3072]> var_300_cast_fp16 = reshape(shape = var_299, x = x_29_cast_fp16)[name = tensor<string, []>("op_300_cast_fp16")];
            tensor<fp16, [768, 3072]> transpose_7_cast_fp16_to_fp32_to_fp16_palettized = constexpr_lut_to_dense()[indices = tensor<uint8, [589824]>(BLOBFILE(path = tensor<string, []>("@model_path/weights/weight.bin"), offset = tensor<uint64, []>(12835072))), lut = tensor<fp16, [4]>([-0x1.068p-3, -0x1.028p-5, 0x1.5fcp-5, 0x1.1acp-3]), name = tensor<string, []>("transpose_7_cast_fp16_to_fp32_to_fp16_palettized"), shape = tensor<uint32, [2]>([768, 3072])];
            tensor<fp16, [768]> x_31_bias_0_to_fp16 = const()[name = tensor<string, []>("x_31_bias_0_to_fp16"), val = tensor<fp16, [768]>(BLOBFILE(path = tensor<string, []>("@model_path/weights/weight.bin"), offset = tensor<uint64, []>(13424960)))];
            tensor<fp16, [?, 768]> x_31_cast_fp16 = linear(bias = x_31_bias_0_to_fp16, weight = transpose_7_cast_fp16_to_fp32_to_fp16_palettized, x = var_300_cast_fp16)[name = tensor<string, []>("x_31_cast_fp16")];
            tensor<int32, []> concat_21_axis_0 = const()[name = tensor<string, []>("concat_21_axis_0"), val = tensor<int32, []>(0)];
            tensor<bool, []> concat_21_interleave_0 = const()[name = tensor<string, []>("concat_21_interleave_0"), val = tensor<bool, []>(false)];
            tensor<int32, [3]> concat_21 = concat(axis = concat_21_axis_0, interleave = concat_21_interleave_0, values = (gather_42, gather_43, var_6))[name = tensor<string, []>("concat_21")];
            tensor<fp16, [?, ?, 768]> input_21_cast_fp16 = reshape(shape = concat_21, x = x_31_cast_fp16)[name = tensor<string, []>("input_21_cast_fp16")];
            tensor<fp16, [?, ?, 768]> input_23_cast_fp16 = add(x = input_17_cast_fp16, y = input_21_cast_fp16)[name = tensor<string, []>("input_23_cast_fp16")];
            tensor<int32, [1]> x_33_axes_0 = const()[name = tensor<string, []>("x_33_axes_0"), val = tensor<int32, [1]>([-1])];
            tensor<fp16, [768]> transformer_h_2_ln_1_weight_to_fp16 = const()[name = tensor<string, []>("transformer_h_2_ln_1_weight_to_fp16"), val = tensor<fp16, [768]>(BLOBFILE(path = tensor<string, []>("@model_path/weights/weight.bin"), offset = tensor<uint64, []>(13426560)))];
            tensor<fp16, [768]> transformer_h_2_ln_1_bias_to_fp16 = const()[name = tensor<string, []>("transformer_h_2_ln_1_bias_to_fp16"), val = tensor<fp16, [768]>(BLOBFILE(path = tensor<string, []>("@model_path/weights/weight.bin"), offset = tensor<uint64, []>(13428160)))];
            tensor<fp16, [?, ?, 768]> x_33_cast_fp16 = layer_norm(axes = x_33_axes_0, beta = transformer_h_2_ln_1_bias_to_fp16, epsilon = var_5_to_fp16, gamma = transformer_h_2_ln_1_weight_to_fp16, x = input_23_cast_fp16)[name = tensor<string, []>("x_33_cast_fp16")];
            tensor<int32, [3]> var_322_shape_cast_fp16 = shape(x = x_33_cast_fp16)[name = tensor<string, []>("op_322_shape_cast_fp16")];
            tensor<int32, []> gather_45_indices_0 = const()[name = tensor<string, []>("gather_45_indices_0"), val = tensor<int32, []>(0)];
            tensor<int32, []> gather_45_axis_0 = const()[name = tensor<string, []>("gather_45_axis_0"), val = tensor<int32, []>(0)];
            tensor<int32, []> gather_45_batch_dims_0 = const()[name = tensor<string, []>("gather_45_batch_dims_0"), val = tensor<int32, []>(0)];
            tensor<int32, []> gather_45 = gather(axis = gather_45_axis_0, batch_dims = gather_45_batch_dims_0, indices = gather_45_indices_0, x = var_322_shape_cast_fp16)[name = tensor<string, []>("gather_45")];
            tensor<int32, []> gather_46_indices_0 = const()[name = tensor<string, []>("gather_46_indices_0"), val = tensor<int32, []>(1)];
            tensor<int32, []> gather_46_axis_0 = const()[name = tensor<string, []>("gather_46_axis_0"), val = tensor<int32, []>(0)];
            tensor<int32, []> gather_46_batch_dims_0 = const()[name = tensor<string, []>("gather_46_batch_dims_0"), val = tensor<int32, []>(0)];
            tensor<int32, []> gather_46 = gather(axis = gather_46_axis_0, batch_dims = gather_46_batch_dims_0, indices = gather_46_indices_0, x = var_322_shape_cast_fp16)[name = tensor<string, []>("gather_46")];
            tensor<int32, [2]> var_325 = const()[name = tensor<string, []>("op_325"), val = tensor<int32, [2]>([-1, 768])];
            tensor<fp16, [?, 768]> var_326_cast_fp16 = reshape(shape = var_325, x = x_33_cast_fp16)[name = tensor<string, []>("op_326_cast_fp16")];
            tensor<fp16, [2304, 768]> transpose_8_cast_fp16_to_fp32_to_fp16_palettized = constexpr_lut_to_dense()[indices = tensor<uint8, [442368]>(BLOBFILE(path = tensor<string, []>("@model_path/weights/weight.bin"), offset = tensor<uint64, []>(13429760))), lut = tensor<fp16, [4]>([-0x1.178p-2, -0x1.174p-4, 0x1.174p-4, 0x1.17p-2]), name = tensor<string, []>("transpose_8_cast_fp16_to_fp32_to_fp16_palettized"), shape = tensor<uint32, [2]>([2304, 768])];
            tensor<fp16, [2304]> x_35_bias_0_to_fp16 = const()[name = tensor<string, []>("x_35_bias_0_to_fp16"), val = tensor<fp16, [2304]>(BLOBFILE(path = tensor<string, []>("@model_path/weights/weight.bin"), offset = tensor<uint64, []>(13872192)))];
            tensor<fp16, [?, 2304]> x_35_cast_fp16 = linear(bias = x_35_bias_0_to_fp16, weight = transpose_8_cast_fp16_to_fp32_to_fp16_palettized, x = var_326_cast_fp16)[name = tensor<string, []>("x_35_cast_fp16")];
            tensor<int32, []> concat_22_axis_0 = const()[name = tensor<string, []>("concat_22_axis_0"), val = tensor<int32, []>(0)];
            tensor<bool, []> concat_22_interleave_0 = const()[name = tensor<string, []>("concat_22_interleave_0"), val = tensor<bool, []>(false)];
            tensor<int32, [3]> concat_22 = concat(axis = concat_22_axis_0, interleave = concat_22_interleave_0, values = (gather_45, gather_46, var_9))[name = tensor<string, []>("concat_22")];
            tensor<fp16, [?, ?, 2304]> var_329_cast_fp16 = reshape(shape = concat_22, x = x_35_cast_fp16)[name = tensor<string, []>("op_329_cast_fp16")];
            tensor<int32, [3]> tile_2 = const()[name = tensor<string, []>("tile_2"), val = tensor<int32, [3]>([768, 768, 768])];
            tensor<int32, []> var_330_axis_0 = const()[name = tensor<string, []>("op_330_axis_0"), val = tensor<int32, []>(2)];
            tensor<fp16, [?, ?, 768]> var_330_cast_fp16_0, tensor<fp16, [?, ?, 768]> var_330_cast_fp16_1, tensor<fp16, [?, ?, 768]> var_330_cast_fp16_2 = split(axis = var_330_axis_0, split_sizes = tile_2, x = var_329_cast_fp16)[name = tensor<string, []>("op_330_cast_fp16")];
            tensor<int32, [3]> var_334_shape_cast_fp16 = shape(x = var_330_cast_fp16_0)[name = tensor<string, []>("op_334_shape_cast_fp16")];
            tensor<int32, []> gather_49_indices_0 = const()[name = tensor<string, []>("gather_49_indices_0"), val = tensor<int32, []>(0)];
            tensor<int32, []> gather_49_axis_0 = const()[name = tensor<string, []>("gather_49_axis_0"), val = tensor<int32, []>(0)];
            tensor<int32, []> gather_49_batch_dims_0 = const()[name = tensor<string, []>("gather_49_batch_dims_0"), val = tensor<int32, []>(0)];
            tensor<int32, []> gather_49 = gather(axis = gather_49_axis_0, batch_dims = gather_49_batch_dims_0, indices = gather_49_indices_0, x = var_334_shape_cast_fp16)[name = tensor<string, []>("gather_49")];
            tensor<int32, []> gather_50_indices_0 = const()[name = tensor<string, []>("gather_50_indices_0"), val = tensor<int32, []>(1)];
            tensor<int32, []> gather_50_axis_0 = const()[name = tensor<string, []>("gather_50_axis_0"), val = tensor<int32, []>(0)];
            tensor<int32, []> gather_50_batch_dims_0 = const()[name = tensor<string, []>("gather_50_batch_dims_0"), val = tensor<int32, []>(0)];
            tensor<int32, []> gather_50 = gather(axis = gather_50_axis_0, batch_dims = gather_50_batch_dims_0, indices = gather_50_indices_0, x = var_334_shape_cast_fp16)[name = tensor<string, []>("gather_50")];
            tensor<int32, [3]> var_336_shape_cast_fp16 = shape(x = var_330_cast_fp16_1)[name = tensor<string, []>("op_336_shape_cast_fp16")];
            tensor<int32, []> gather_51_indices_0 = const()[name = tensor<string, []>("gather_51_indices_0"), val = tensor<int32, []>(0)];
            tensor<int32, []> gather_51_axis_0 = const()[name = tensor<string, []>("gather_51_axis_0"), val = tensor<int32, []>(0)];
            tensor<int32, []> gather_51_batch_dims_0 = const()[name = tensor<string, []>("gather_51_batch_dims_0"), val = tensor<int32, []>(0)];
            tensor<int32, []> gather_51 = gather(axis = gather_51_axis_0, batch_dims = gather_51_batch_dims_0, indices = gather_51_indices_0, x = var_336_shape_cast_fp16)[name = tensor<string, []>("gather_51")];
            tensor<int32, [3]> var_337_shape_cast_fp16 = shape(x = var_330_cast_fp16_1)[name = tensor<string, []>("op_337_shape_cast_fp16")];
            tensor<int32, []> gather_52_indices_0 = const()[name = tensor<string, []>("gather_52_indices_0"), val = tensor<int32, []>(1)];
            tensor<int32, []> gather_52_axis_0 = const()[name = tensor<string, []>("gather_52_axis_0"), val = tensor<int32, []>(0)];
            tensor<int32, []> gather_52_batch_dims_0 = const()[name = tensor<string, []>("gather_52_batch_dims_0"), val = tensor<int32, []>(0)];
            tensor<int32, []> gather_52 = gather(axis = gather_52_axis_0, batch_dims = gather_52_batch_dims_0, indices = gather_52_indices_0, x = var_337_shape_cast_fp16)[name = tensor<string, []>("gather_52")];
            tensor<int32, []> concat_23_axis_0 = const()[name = tensor<string, []>("concat_23_axis_0"), val = tensor<int32, []>(0)];
            tensor<bool, []> concat_23_interleave_0 = const()[name = tensor<string, []>("concat_23_interleave_0"), val = tensor<bool, []>(false)];
            tensor<int32, [4]> concat_23 = concat(axis = concat_23_axis_0, interleave = concat_23_interleave_0, values = (gather_49, gather_50, var_23, var_8))[name = tensor<string, []>("concat_23")];
            tensor<fp16, [?, ?, 12, 64]> var_339_cast_fp16 = reshape(shape = concat_23, x = var_330_cast_fp16_0)[name = tensor<string, []>("op_339_cast_fp16")];
            tensor<int32, [4]> query_9_perm_0 = const()[name = tensor<string, []>("query_9_perm_0"), val = tensor<int32, [4]>([0, 2, 1, 3])];
            tensor<int32, []> concat_24_axis_0 = const()[name = tensor<string, []>("concat_24_axis_0"), val = tensor<int32, []>(0)];
            tensor<bool, []> concat_24_interleave_0 = const()[name = tensor<string, []>("concat_24_interleave_0"), val = tensor<bool, []>(false)];
            tensor<int32, [4]> concat_24 = concat(axis = concat_24_axis_0, interleave = concat_24_interleave_0, values = (gather_51, gather_52, var_23, var_8))[name = tensor<string, []>("concat_24")];
            tensor<fp16, [?, ?, 12, 64]> var_342_cast_fp16 = reshape(shape = concat_24, x = var_330_cast_fp16_1)[name = tensor<string, []>("op_342_cast_fp16")];
            tensor<int32, [4]> key_9_perm_0 = const()[name = tensor<string, []>("key_9_perm_0"), val = tensor<int32, [4]>([0, 2, -3, -1])];
            tensor<string, []> key_9_cast_fp16_to_fp32_dtype_0 = const()[name = tensor<string, []>("key_9_cast_fp16_to_fp32_dtype_0"), val = tensor<string, []>("fp32")];
            tensor<fp16, [?, ?, 12, 64]> var_345_cast_fp16 = reshape(shape = concat_24, x = var_330_cast_fp16_2)[name = tensor<string, []>("op_345_cast_fp16")];
            tensor<int32, [4]> value_9_perm_0 = const()[name = tensor<string, []>("value_9_perm_0"), val = tensor<int32, [4]>([0, 2, -3, -1])];
            tensor<string, []> value_9_cast_fp16_to_fp32_dtype_0 = const()[name = tensor<string, []>("value_9_cast_fp16_to_fp32_dtype_0"), val = tensor<string, []>("fp32")];
            tensor<fp16, [?, 12, ?, 64]> key_9_cast_fp16 = transpose(perm = key_9_perm_0, x = var_342_cast_fp16)[name = tensor<string, []>("transpose_23")];
            tensor<int32, [4]> var_347_shape_cast_fp16 = shape(x = key_9_cast_fp16)[name = tensor<string, []>("op_347_shape_cast_fp16")];
            tensor<int32, []> gather_53_indices_0 = const()[name = tensor<string, []>("gather_53_indices_0"), val = tensor<int32, []>(2)];
            tensor<int32, []> gather_53_axis_0 = const()[name = tensor<string, []>("gather_53_axis_0"), val = tensor<int32, []>(0)];
            tensor<int32, []> gather_53_batch_dims_0 = const()[name = tensor<string, []>("gather_53_batch_dims_0"), val = tensor<int32, []>(0)];
            tensor<int32, []> gather_53 = gather(axis = gather_53_axis_0, batch_dims = gather_53_batch_dims_0, indices = gather_53_indices_0, x = var_347_shape_cast_fp16)[name = tensor<string, []>("gather_53")];
            tensor<int32, []> concat_26_values0_0 = const()[name = tensor<string, []>("concat_26_values0_0"), val = tensor<int32, []>(0)];
            tensor<int32, []> concat_26_values1_0 = const()[name = tensor<string, []>("concat_26_values1_0"), val = tensor<int32, []>(0)];
            tensor<int32, []> concat_26_values2_0 = const()[name = tensor<string, []>("concat_26_values2_0"), val = tensor<int32, []>(0)];
            tensor<int32, []> concat_26_axis_0 = const()[name = tensor<string, []>("concat_26_axis_0"), val = tensor<int32, []>(0)];
            tensor<bool, []> concat_26_interleave_0 = const()[name = tensor<string, []>("concat_26_interleave_0"), val = tensor<bool, []>(false)];
            tensor<int32, [4]> concat_26 = concat(axis = concat_26_axis_0, interleave = concat_26_interleave_0, values = (concat_26_values0_0, concat_26_values1_0, concat_26_values2_0, gather_53))[name = tensor<string, []>("concat_26")];
            tensor<int32, [4]> causal_mask_5_begin_0 = const()[name = tensor<string, []>("causal_mask_5_begin_0"), val = tensor<int32, [4]>([0, 0, 0, 0])];
            tensor<bool, [4]> causal_mask_5_end_mask_0 = const()[name = tensor<string, []>("causal_mask_5_end_mask_0"), val = tensor<bool, [4]>([true, true, true, false])];
            tensor<fp16, [?, ?, ?, ?]> causal_mask_5_cast_fp16 = slice_by_index(begin = causal_mask_5_begin_0, end = concat_26, end_mask = causal_mask_5_end_mask_0, x = attention_mask_cast_fp16)[name = tensor<string, []>("causal_mask_5_cast_fp16")];
            tensor<fp16, []> mul_8_y_0_to_fp16 = const()[name = tensor<string, []>("mul_8_y_0_to_fp16"), val = tensor<fp16, []>(0x1p-3)];
            tensor<fp16, [?, 12, ?, 64]> query_9_cast_fp16 = transpose(perm = query_9_perm_0, x = var_339_cast_fp16)[name = tensor<string, []>("transpose_22")];
            tensor<fp16, [?, 12, ?, 64]> mul_8_cast_fp16 = mul(x = query_9_cast_fp16, y = mul_8_y_0_to_fp16)[name = tensor<string, []>("mul_8_cast_fp16")];
            tensor<bool, []> matmul_11_transpose_y_0 = const()[name = tensor<string, []>("matmul_11_transpose_y_0"), val = tensor<bool, []>(true)];
            tensor<bool, []> matmul_11_transpose_x_0 = const()[name = tensor<string, []>("matmul_11_transpose_x_0"), val = tensor<bool, []>(false)];
            tensor<fp16, [?, 12, ?, ?]> matmul_11_cast_fp16 = matmul(transpose_x = matmul_11_transpose_x_0, transpose_y = matmul_11_transpose_y_0, x = mul_8_cast_fp16, y = key_9_cast_fp16)[name = tensor<string, []>("matmul_11_cast_fp16")];
            tensor<fp16, [?, 12, ?, ?]> add_2_cast_fp16 = add(x = matmul_11_cast_fp16, y = causal_mask_5_cast_fp16)[name = tensor<string, []>("add_2_cast_fp16")];
            tensor<int32, []> softmax_2_axis_0 = const()[name = tensor<string, []>("softmax_2_axis_0"), val = tensor<int32, []>(-1)];
            tensor<fp16, [?, 12, ?, ?]> softmax_2_cast_fp16 = softmax(axis = softmax_2_axis_0, x = add_2_cast_fp16)[name = tensor<string, []>("softmax_2_cast_fp16")];
            tensor<bool, []> attn_output_13_transpose_x_0 = const()[name = tensor<string, []>("attn_output_13_transpose_x_0"), val = tensor<bool, []>(false)];
            tensor<bool, []> attn_output_13_transpose_y_0 = const()[name = tensor<string, []>("attn_output_13_transpose_y_0"), val = tensor<bool, []>(false)];
            tensor<fp16, [?, 12, ?, 64]> value_9_cast_fp16 = transpose(perm = value_9_perm_0, x = var_345_cast_fp16)[name = tensor<string, []>("transpose_21")];
            tensor<fp16, [?, 12, ?, 64]> attn_output_13_cast_fp16 = matmul(transpose_x = attn_output_13_transpose_x_0, transpose_y = attn_output_13_transpose_y_0, x = softmax_2_cast_fp16, y = value_9_cast_fp16)[name = tensor<string, []>("attn_output_13_cast_fp16")];
            tensor<int32, [4]> var_356_perm_0 = const()[name = tensor<string, []>("op_356_perm_0"), val = tensor<int32, [4]>([0, 2, 1, 3])];
            tensor<fp16, [?, ?, 12, 64]> var_356_cast_fp16 = transpose(perm = var_356_perm_0, x = attn_output_13_cast_fp16)[name = tensor<string, []>("transpose_20")];
            tensor<int32, [4]> var_358_shape_cast_fp16 = shape(x = var_356_cast_fp16)[name = tensor<string, []>("op_358_shape_cast_fp16")];
            tensor<int32, []> gather_54_indices_0 = const()[name = tensor<string, []>("gather_54_indices_0"), val = tensor<int32, []>(0)];
            tensor<int32, []> gather_54_axis_0 = const()[name = tensor<string, []>("gather_54_axis_0"), val = tensor<int32, []>(0)];
            tensor<int32, []> gather_54_batch_dims_0 = const()[name = tensor<string, []>("gather_54_batch_dims_0"), val = tensor<int32, []>(0)];
            tensor<int32, []> gather_54 = gather(axis = gather_54_axis_0, batch_dims = gather_54_batch_dims_0, indices = gather_54_indices_0, x = var_358_shape_cast_fp16)[name = tensor<string, []>("gather_54")];
            tensor<int32, []> gather_55_indices_0 = const()[name = tensor<string, []>("gather_55_indices_0"), val = tensor<int32, []>(1)];
            tensor<int32, []> gather_55_axis_0 = const()[name = tensor<string, []>("gather_55_axis_0"), val = tensor<int32, []>(0)];
            tensor<int32, []> gather_55_batch_dims_0 = const()[name = tensor<string, []>("gather_55_batch_dims_0"), val = tensor<int32, []>(0)];
            tensor<int32, []> gather_55 = gather(axis = gather_55_axis_0, batch_dims = gather_55_batch_dims_0, indices = gather_55_indices_0, x = var_358_shape_cast_fp16)[name = tensor<string, []>("gather_55")];
            tensor<int32, []> concat_27_axis_0 = const()[name = tensor<string, []>("concat_27_axis_0"), val = tensor<int32, []>(0)];
            tensor<bool, []> concat_27_interleave_0 = const()[name = tensor<string, []>("concat_27_interleave_0"), val = tensor<bool, []>(false)];
            tensor<int32, [3]> concat_27 = concat(axis = concat_27_axis_0, interleave = concat_27_interleave_0, values = (gather_54, gather_55, var_23))[name = tensor<string, []>("concat_27")];
            tensor<fp16, [?, ?, 768]> var_361_cast_fp16 = reshape(shape = concat_27, x = var_356_cast_fp16)[name = tensor<string, []>("op_361_cast_fp16")];
            tensor<int32, [3]> var_365_shape_cast_fp16 = shape(x = var_361_cast_fp16)[name = tensor<string, []>("op_365_shape_cast_fp16")];
            tensor<int32, []> gather_56_indices_0 = const()[name = tensor<string, []>("gather_56_indices_0"), val = tensor<int32, []>(0)];
            tensor<int32, []> gather_56_axis_0 = const()[name = tensor<string, []>("gather_56_axis_0"), val = tensor<int32, []>(0)];
            tensor<int32, []> gather_56_batch_dims_0 = const()[name = tensor<string, []>("gather_56_batch_dims_0"), val = tensor<int32, []>(0)];
            tensor<int32, []> gather_56 = gather(axis = gather_56_axis_0, batch_dims = gather_56_batch_dims_0, indices = gather_56_indices_0, x = var_365_shape_cast_fp16)[name = tensor<string, []>("gather_56")];
            tensor<int32, []> gather_57_indices_0 = const()[name = tensor<string, []>("gather_57_indices_0"), val = tensor<int32, []>(1)];
            tensor<int32, []> gather_57_axis_0 = const()[name = tensor<string, []>("gather_57_axis_0"), val = tensor<int32, []>(0)];
            tensor<int32, []> gather_57_batch_dims_0 = const()[name = tensor<string, []>("gather_57_batch_dims_0"), val = tensor<int32, []>(0)];
            tensor<int32, []> gather_57 = gather(axis = gather_57_axis_0, batch_dims = gather_57_batch_dims_0, indices = gather_57_indices_0, x = var_365_shape_cast_fp16)[name = tensor<string, []>("gather_57")];
            tensor<int32, [2]> var_368 = const()[name = tensor<string, []>("op_368"), val = tensor<int32, [2]>([-1, 768])];
            tensor<fp16, [?, 768]> var_369_cast_fp16 = reshape(shape = var_368, x = var_361_cast_fp16)[name = tensor<string, []>("op_369_cast_fp16")];
            tensor<fp16, [768, 768]> transpose_9_cast_fp16_to_fp32_to_fp16_palettized = constexpr_lut_to_dense()[indices = tensor<uint8, [147456]>(BLOBFILE(path = tensor<string, []>("@model_path/weights/weight.bin"), offset = tensor<uint64, []>(13876864))), lut = tensor<fp16, [4]>([-0x1.ffcp-4, -0x1.204p-5, 0x1.31cp-5, 0x1.054p-3]), name = tensor<string, []>("transpose_9_cast_fp16_to_fp32_to_fp16_palettized"), shape = tensor<uint32, [2]>([768, 768])];
            tensor<fp16, [768]> x_39_bias_0_to_fp16 = const()[name = tensor<string, []>("x_39_bias_0_to_fp16"), val = tensor<fp16, [768]>(BLOBFILE(path = tensor<string, []>("@model_path/weights/weight.bin"), offset = tensor<uint64, []>(14024384)))];
            tensor<fp16, [?, 768]> x_39_cast_fp16 = linear(bias = x_39_bias_0_to_fp16, weight = transpose_9_cast_fp16_to_fp32_to_fp16_palettized, x = var_369_cast_fp16)[name = tensor<string, []>("x_39_cast_fp16")];
            tensor<int32, []> concat_28_axis_0 = const()[name = tensor<string, []>("concat_28_axis_0"), val = tensor<int32, []>(0)];
            tensor<bool, []> concat_28_interleave_0 = const()[name = tensor<string, []>("concat_28_interleave_0"), val = tensor<bool, []>(false)];
            tensor<int32, [3]> concat_28 = concat(axis = concat_28_axis_0, interleave = concat_28_interleave_0, values = (gather_56, gather_57, var_6))[name = tensor<string, []>("concat_28")];
            tensor<fp16, [?, ?, 768]> input_25_cast_fp16 = reshape(shape = concat_28, x = x_39_cast_fp16)[name = tensor<string, []>("input_25_cast_fp16")];
            tensor<fp16, [?, ?, 768]> input_27_cast_fp16 = add(x = input_25_cast_fp16, y = input_23_cast_fp16)[name = tensor<string, []>("input_27_cast_fp16")];
            tensor<int32, [1]> x_41_axes_0 = const()[name = tensor<string, []>("x_41_axes_0"), val = tensor<int32, [1]>([-1])];
            tensor<fp16, [768]> transformer_h_2_ln_2_weight_to_fp16 = const()[name = tensor<string, []>("transformer_h_2_ln_2_weight_to_fp16"), val = tensor<fp16, [768]>(BLOBFILE(path = tensor<string, []>("@model_path/weights/weight.bin"), offset = tensor<uint64, []>(14025984)))];
            tensor<fp16, [768]> transformer_h_2_ln_2_bias_to_fp16 = const()[name = tensor<string, []>("transformer_h_2_ln_2_bias_to_fp16"), val = tensor<fp16, [768]>(BLOBFILE(path = tensor<string, []>("@model_path/weights/weight.bin"), offset = tensor<uint64, []>(14027584)))];
            tensor<fp16, [?, ?, 768]> x_41_cast_fp16 = layer_norm(axes = x_41_axes_0, beta = transformer_h_2_ln_2_bias_to_fp16, epsilon = var_5_to_fp16, gamma = transformer_h_2_ln_2_weight_to_fp16, x = input_27_cast_fp16)[name = tensor<string, []>("x_41_cast_fp16")];
            tensor<int32, [3]> var_387_shape_cast_fp16 = shape(x = x_41_cast_fp16)[name = tensor<string, []>("op_387_shape_cast_fp16")];
            tensor<int32, []> gather_59_indices_0 = const()[name = tensor<string, []>("gather_59_indices_0"), val = tensor<int32, []>(0)];
            tensor<int32, []> gather_59_axis_0 = const()[name = tensor<string, []>("gather_59_axis_0"), val = tensor<int32, []>(0)];
            tensor<int32, []> gather_59_batch_dims_0 = const()[name = tensor<string, []>("gather_59_batch_dims_0"), val = tensor<int32, []>(0)];
            tensor<int32, []> gather_59 = gather(axis = gather_59_axis_0, batch_dims = gather_59_batch_dims_0, indices = gather_59_indices_0, x = var_387_shape_cast_fp16)[name = tensor<string, []>("gather_59")];
            tensor<int32, []> gather_60_indices_0 = const()[name = tensor<string, []>("gather_60_indices_0"), val = tensor<int32, []>(1)];
            tensor<int32, []> gather_60_axis_0 = const()[name = tensor<string, []>("gather_60_axis_0"), val = tensor<int32, []>(0)];
            tensor<int32, []> gather_60_batch_dims_0 = const()[name = tensor<string, []>("gather_60_batch_dims_0"), val = tensor<int32, []>(0)];
            tensor<int32, []> gather_60 = gather(axis = gather_60_axis_0, batch_dims = gather_60_batch_dims_0, indices = gather_60_indices_0, x = var_387_shape_cast_fp16)[name = tensor<string, []>("gather_60")];
            tensor<int32, [2]> var_390 = const()[name = tensor<string, []>("op_390"), val = tensor<int32, [2]>([-1, 768])];
            tensor<fp16, [?, 768]> var_391_cast_fp16 = reshape(shape = var_390, x = x_41_cast_fp16)[name = tensor<string, []>("op_391_cast_fp16")];
            tensor<fp16, [3072, 768]> transpose_10_cast_fp16_to_fp32_to_fp16_palettized = constexpr_lut_to_dense()[indices = tensor<uint8, [589824]>(BLOBFILE(path = tensor<string, []>("@model_path/weights/weight.bin"), offset = tensor<uint64, []>(14029184))), lut = tensor<fp16, [4]>([-0x1.bap-3, -0x1.0fcp-4, 0x1.b6p-5, 0x1.9acp-3]), name = tensor<string, []>("transpose_10_cast_fp16_to_fp32_to_fp16_palettized"), shape = tensor<uint32, [2]>([3072, 768])];
            tensor<fp16, [3072]> x_43_bias_0_to_fp16 = const()[name = tensor<string, []>("x_43_bias_0_to_fp16"), val = tensor<fp16, [3072]>(BLOBFILE(path = tensor<string, []>("@model_path/weights/weight.bin"), offset = tensor<uint64, []>(14619072)))];
            tensor<fp16, [?, 3072]> x_43_cast_fp16 = linear(bias = x_43_bias_0_to_fp16, weight = transpose_10_cast_fp16_to_fp32_to_fp16_palettized, x = var_391_cast_fp16)[name = tensor<string, []>("x_43_cast_fp16")];
            tensor<int32, []> concat_29_axis_0 = const()[name = tensor<string, []>("concat_29_axis_0"), val = tensor<int32, []>(0)];
            tensor<bool, []> concat_29_interleave_0 = const()[name = tensor<string, []>("concat_29_interleave_0"), val = tensor<bool, []>(false)];
            tensor<int32, [3]> concat_29 = concat(axis = concat_29_axis_0, interleave = concat_29_interleave_0, values = (gather_59, gather_60, var_11))[name = tensor<string, []>("concat_29")];
            tensor<fp16, [?, ?, 3072]> input_29_cast_fp16 = reshape(shape = concat_29, x = x_43_cast_fp16)[name = tensor<string, []>("input_29_cast_fp16")];
            tensor<string, []> x_45_mode_0 = const()[name = tensor<string, []>("x_45_mode_0"), val = tensor<string, []>("TANH_APPROXIMATION")];
            tensor<fp16, [?, ?, 3072]> x_45_cast_fp16 = gelu(mode = x_45_mode_0, x = input_29_cast_fp16)[name = tensor<string, []>("x_45_cast_fp16")];
            tensor<int32, [3]> var_409_shape_cast_fp16 = shape(x = x_45_cast_fp16)[name = tensor<string, []>("op_409_shape_cast_fp16")];
            tensor<int32, []> gather_62_indices_0 = const()[name = tensor<string, []>("gather_62_indices_0"), val = tensor<int32, []>(0)];
            tensor<int32, []> gather_62_axis_0 = const()[name = tensor<string, []>("gather_62_axis_0"), val = tensor<int32, []>(0)];
            tensor<int32, []> gather_62_batch_dims_0 = const()[name = tensor<string, []>("gather_62_batch_dims_0"), val = tensor<int32, []>(0)];
            tensor<int32, []> gather_62 = gather(axis = gather_62_axis_0, batch_dims = gather_62_batch_dims_0, indices = gather_62_indices_0, x = var_409_shape_cast_fp16)[name = tensor<string, []>("gather_62")];
            tensor<int32, []> gather_63_indices_0 = const()[name = tensor<string, []>("gather_63_indices_0"), val = tensor<int32, []>(1)];
            tensor<int32, []> gather_63_axis_0 = const()[name = tensor<string, []>("gather_63_axis_0"), val = tensor<int32, []>(0)];
            tensor<int32, []> gather_63_batch_dims_0 = const()[name = tensor<string, []>("gather_63_batch_dims_0"), val = tensor<int32, []>(0)];
            tensor<int32, []> gather_63 = gather(axis = gather_63_axis_0, batch_dims = gather_63_batch_dims_0, indices = gather_63_indices_0, x = var_409_shape_cast_fp16)[name = tensor<string, []>("gather_63")];
            tensor<int32, [2]> var_412 = const()[name = tensor<string, []>("op_412"), val = tensor<int32, [2]>([-1, 3072])];
            tensor<fp16, [?, 3072]> var_413_cast_fp16 = reshape(shape = var_412, x = x_45_cast_fp16)[name = tensor<string, []>("op_413_cast_fp16")];
            tensor<fp16, [768, 3072]> transpose_11_cast_fp16_to_fp32_to_fp16_palettized = constexpr_lut_to_dense()[indices = tensor<uint8, [589824]>(BLOBFILE(path = tensor<string, []>("@model_path/weights/weight.bin"), offset = tensor<uint64, []>(14625280))), lut = tensor<fp16, [4]>([-0x1.1c4p-3, -0x1.364p-5, 0x1.66cp-5, 0x1.2acp-3]), name = tensor<string, []>("transpose_11_cast_fp16_to_fp32_to_fp16_palettized"), shape = tensor<uint32, [2]>([768, 3072])];
            tensor<fp16, [768]> x_47_bias_0_to_fp16 = const()[name = tensor<string, []>("x_47_bias_0_to_fp16"), val = tensor<fp16, [768]>(BLOBFILE(path = tensor<string, []>("@model_path/weights/weight.bin"), offset = tensor<uint64, []>(15215168)))];
            tensor<fp16, [?, 768]> x_47_cast_fp16 = linear(bias = x_47_bias_0_to_fp16, weight = transpose_11_cast_fp16_to_fp32_to_fp16_palettized, x = var_413_cast_fp16)[name = tensor<string, []>("x_47_cast_fp16")];
            tensor<int32, []> concat_30_axis_0 = const()[name = tensor<string, []>("concat_30_axis_0"), val = tensor<int32, []>(0)];
            tensor<bool, []> concat_30_interleave_0 = const()[name = tensor<string, []>("concat_30_interleave_0"), val = tensor<bool, []>(false)];
            tensor<int32, [3]> concat_30 = concat(axis = concat_30_axis_0, interleave = concat_30_interleave_0, values = (gather_62, gather_63, var_6))[name = tensor<string, []>("concat_30")];
            tensor<fp16, [?, ?, 768]> input_31_cast_fp16 = reshape(shape = concat_30, x = x_47_cast_fp16)[name = tensor<string, []>("input_31_cast_fp16")];
            tensor<fp16, [?, ?, 768]> input_33_cast_fp16 = add(x = input_27_cast_fp16, y = input_31_cast_fp16)[name = tensor<string, []>("input_33_cast_fp16")];
            tensor<int32, [1]> x_49_axes_0 = const()[name = tensor<string, []>("x_49_axes_0"), val = tensor<int32, [1]>([-1])];
            tensor<fp16, [768]> transformer_h_3_ln_1_weight_to_fp16 = const()[name = tensor<string, []>("transformer_h_3_ln_1_weight_to_fp16"), val = tensor<fp16, [768]>(BLOBFILE(path = tensor<string, []>("@model_path/weights/weight.bin"), offset = tensor<uint64, []>(15216768)))];
            tensor<fp16, [768]> transformer_h_3_ln_1_bias_to_fp16 = const()[name = tensor<string, []>("transformer_h_3_ln_1_bias_to_fp16"), val = tensor<fp16, [768]>(BLOBFILE(path = tensor<string, []>("@model_path/weights/weight.bin"), offset = tensor<uint64, []>(15218368)))];
            tensor<fp16, [?, ?, 768]> x_49_cast_fp16 = layer_norm(axes = x_49_axes_0, beta = transformer_h_3_ln_1_bias_to_fp16, epsilon = var_5_to_fp16, gamma = transformer_h_3_ln_1_weight_to_fp16, x = input_33_cast_fp16)[name = tensor<string, []>("x_49_cast_fp16")];
            tensor<int32, [3]> var_435_shape_cast_fp16 = shape(x = x_49_cast_fp16)[name = tensor<string, []>("op_435_shape_cast_fp16")];
            tensor<int32, []> gather_65_indices_0 = const()[name = tensor<string, []>("gather_65_indices_0"), val = tensor<int32, []>(0)];
            tensor<int32, []> gather_65_axis_0 = const()[name = tensor<string, []>("gather_65_axis_0"), val = tensor<int32, []>(0)];
            tensor<int32, []> gather_65_batch_dims_0 = const()[name = tensor<string, []>("gather_65_batch_dims_0"), val = tensor<int32, []>(0)];
            tensor<int32, []> gather_65 = gather(axis = gather_65_axis_0, batch_dims = gather_65_batch_dims_0, indices = gather_65_indices_0, x = var_435_shape_cast_fp16)[name = tensor<string, []>("gather_65")];
            tensor<int32, []> gather_66_indices_0 = const()[name = tensor<string, []>("gather_66_indices_0"), val = tensor<int32, []>(1)];
            tensor<int32, []> gather_66_axis_0 = const()[name = tensor<string, []>("gather_66_axis_0"), val = tensor<int32, []>(0)];
            tensor<int32, []> gather_66_batch_dims_0 = const()[name = tensor<string, []>("gather_66_batch_dims_0"), val = tensor<int32, []>(0)];
            tensor<int32, []> gather_66 = gather(axis = gather_66_axis_0, batch_dims = gather_66_batch_dims_0, indices = gather_66_indices_0, x = var_435_shape_cast_fp16)[name = tensor<string, []>("gather_66")];
            tensor<int32, [2]> var_438 = const()[name = tensor<string, []>("op_438"), val = tensor<int32, [2]>([-1, 768])];
            tensor<fp16, [?, 768]> var_439_cast_fp16 = reshape(shape = var_438, x = x_49_cast_fp16)[name = tensor<string, []>("op_439_cast_fp16")];
            tensor<fp16, [2304, 768]> transpose_12_cast_fp16_to_fp32_to_fp16_palettized = constexpr_lut_to_dense()[indices = tensor<uint8, [442368]>(BLOBFILE(path = tensor<string, []>("@model_path/weights/weight.bin"), offset = tensor<uint64, []>(15219968))), lut = tensor<fp16, [4]>([-0x1.d68p-3, -0x1.048p-4, 0x1.048p-4, 0x1.d7p-3]), name = tensor<string, []>("transpose_12_cast_fp16_to_fp32_to_fp16_palettized"), shape = tensor<uint32, [2]>([2304, 768])];
            tensor<fp16, [2304]> x_51_bias_0_to_fp16 = const()[name = tensor<string, []>("x_51_bias_0_to_fp16"), val = tensor<fp16, [2304]>(BLOBFILE(path = tensor<string, []>("@model_path/weights/weight.bin"), offset = tensor<uint64, []>(15662400)))];
            tensor<fp16, [?, 2304]> x_51_cast_fp16 = linear(bias = x_51_bias_0_to_fp16, weight = transpose_12_cast_fp16_to_fp32_to_fp16_palettized, x = var_439_cast_fp16)[name = tensor<string, []>("x_51_cast_fp16")];
            tensor<int32, []> concat_31_axis_0 = const()[name = tensor<string, []>("concat_31_axis_0"), val = tensor<int32, []>(0)];
            tensor<bool, []> concat_31_interleave_0 = const()[name = tensor<string, []>("concat_31_interleave_0"), val = tensor<bool, []>(false)];
            tensor<int32, [3]> concat_31 = concat(axis = concat_31_axis_0, interleave = concat_31_interleave_0, values = (gather_65, gather_66, var_9))[name = tensor<string, []>("concat_31")];
            tensor<fp16, [?, ?, 2304]> var_442_cast_fp16 = reshape(shape = concat_31, x = x_51_cast_fp16)[name = tensor<string, []>("op_442_cast_fp16")];
            tensor<int32, [3]> tile_3 = const()[name = tensor<string, []>("tile_3"), val = tensor<int32, [3]>([768, 768, 768])];
            tensor<int32, []> var_443_axis_0 = const()[name = tensor<string, []>("op_443_axis_0"), val = tensor<int32, []>(2)];
            tensor<fp16, [?, ?, 768]> var_443_cast_fp16_0, tensor<fp16, [?, ?, 768]> var_443_cast_fp16_1, tensor<fp16, [?, ?, 768]> var_443_cast_fp16_2 = split(axis = var_443_axis_0, split_sizes = tile_3, x = var_442_cast_fp16)[name = tensor<string, []>("op_443_cast_fp16")];
            tensor<int32, [3]> var_447_shape_cast_fp16 = shape(x = var_443_cast_fp16_0)[name = tensor<string, []>("op_447_shape_cast_fp16")];
            tensor<int32, []> gather_69_indices_0 = const()[name = tensor<string, []>("gather_69_indices_0"), val = tensor<int32, []>(0)];
            tensor<int32, []> gather_69_axis_0 = const()[name = tensor<string, []>("gather_69_axis_0"), val = tensor<int32, []>(0)];
            tensor<int32, []> gather_69_batch_dims_0 = const()[name = tensor<string, []>("gather_69_batch_dims_0"), val = tensor<int32, []>(0)];
            tensor<int32, []> gather_69 = gather(axis = gather_69_axis_0, batch_dims = gather_69_batch_dims_0, indices = gather_69_indices_0, x = var_447_shape_cast_fp16)[name = tensor<string, []>("gather_69")];
            tensor<int32, []> gather_70_indices_0 = const()[name = tensor<string, []>("gather_70_indices_0"), val = tensor<int32, []>(1)];
            tensor<int32, []> gather_70_axis_0 = const()[name = tensor<string, []>("gather_70_axis_0"), val = tensor<int32, []>(0)];
            tensor<int32, []> gather_70_batch_dims_0 = const()[name = tensor<string, []>("gather_70_batch_dims_0"), val = tensor<int32, []>(0)];
            tensor<int32, []> gather_70 = gather(axis = gather_70_axis_0, batch_dims = gather_70_batch_dims_0, indices = gather_70_indices_0, x = var_447_shape_cast_fp16)[name = tensor<string, []>("gather_70")];
            tensor<int32, [3]> var_449_shape_cast_fp16 = shape(x = var_443_cast_fp16_1)[name = tensor<string, []>("op_449_shape_cast_fp16")];
            tensor<int32, []> gather_71_indices_0 = const()[name = tensor<string, []>("gather_71_indices_0"), val = tensor<int32, []>(0)];
            tensor<int32, []> gather_71_axis_0 = const()[name = tensor<string, []>("gather_71_axis_0"), val = tensor<int32, []>(0)];
            tensor<int32, []> gather_71_batch_dims_0 = const()[name = tensor<string, []>("gather_71_batch_dims_0"), val = tensor<int32, []>(0)];
            tensor<int32, []> gather_71 = gather(axis = gather_71_axis_0, batch_dims = gather_71_batch_dims_0, indices = gather_71_indices_0, x = var_449_shape_cast_fp16)[name = tensor<string, []>("gather_71")];
            tensor<int32, [3]> var_450_shape_cast_fp16 = shape(x = var_443_cast_fp16_1)[name = tensor<string, []>("op_450_shape_cast_fp16")];
            tensor<int32, []> gather_72_indices_0 = const()[name = tensor<string, []>("gather_72_indices_0"), val = tensor<int32, []>(1)];
            tensor<int32, []> gather_72_axis_0 = const()[name = tensor<string, []>("gather_72_axis_0"), val = tensor<int32, []>(0)];
            tensor<int32, []> gather_72_batch_dims_0 = const()[name = tensor<string, []>("gather_72_batch_dims_0"), val = tensor<int32, []>(0)];
            tensor<int32, []> gather_72 = gather(axis = gather_72_axis_0, batch_dims = gather_72_batch_dims_0, indices = gather_72_indices_0, x = var_450_shape_cast_fp16)[name = tensor<string, []>("gather_72")];
            tensor<int32, []> concat_32_axis_0 = const()[name = tensor<string, []>("concat_32_axis_0"), val = tensor<int32, []>(0)];
            tensor<bool, []> concat_32_interleave_0 = const()[name = tensor<string, []>("concat_32_interleave_0"), val = tensor<bool, []>(false)];
            tensor<int32, [4]> concat_32 = concat(axis = concat_32_axis_0, interleave = concat_32_interleave_0, values = (gather_69, gather_70, var_23, var_8))[name = tensor<string, []>("concat_32")];
            tensor<fp16, [?, ?, 12, 64]> var_452_cast_fp16 = reshape(shape = concat_32, x = var_443_cast_fp16_0)[name = tensor<string, []>("op_452_cast_fp16")];
            tensor<int32, [4]> query_13_perm_0 = const()[name = tensor<string, []>("query_13_perm_0"), val = tensor<int32, [4]>([0, 2, 1, 3])];
            tensor<int32, []> concat_33_axis_0 = const()[name = tensor<string, []>("concat_33_axis_0"), val = tensor<int32, []>(0)];
            tensor<bool, []> concat_33_interleave_0 = const()[name = tensor<string, []>("concat_33_interleave_0"), val = tensor<bool, []>(false)];
            tensor<int32, [4]> concat_33 = concat(axis = concat_33_axis_0, interleave = concat_33_interleave_0, values = (gather_71, gather_72, var_23, var_8))[name = tensor<string, []>("concat_33")];
            tensor<fp16, [?, ?, 12, 64]> var_455_cast_fp16 = reshape(shape = concat_33, x = var_443_cast_fp16_1)[name = tensor<string, []>("op_455_cast_fp16")];
            tensor<int32, [4]> key_13_perm_0 = const()[name = tensor<string, []>("key_13_perm_0"), val = tensor<int32, [4]>([0, 2, -3, -1])];
            tensor<string, []> key_13_cast_fp16_to_fp32_dtype_0 = const()[name = tensor<string, []>("key_13_cast_fp16_to_fp32_dtype_0"), val = tensor<string, []>("fp32")];
            tensor<fp16, [?, ?, 12, 64]> var_458_cast_fp16 = reshape(shape = concat_33, x = var_443_cast_fp16_2)[name = tensor<string, []>("op_458_cast_fp16")];
            tensor<int32, [4]> value_13_perm_0 = const()[name = tensor<string, []>("value_13_perm_0"), val = tensor<int32, [4]>([0, 2, -3, -1])];
            tensor<string, []> value_13_cast_fp16_to_fp32_dtype_0 = const()[name = tensor<string, []>("value_13_cast_fp16_to_fp32_dtype_0"), val = tensor<string, []>("fp32")];
            tensor<fp16, [?, 12, ?, 64]> key_13_cast_fp16 = transpose(perm = key_13_perm_0, x = var_455_cast_fp16)[name = tensor<string, []>("transpose_19")];
            tensor<int32, [4]> var_460_shape_cast_fp16 = shape(x = key_13_cast_fp16)[name = tensor<string, []>("op_460_shape_cast_fp16")];
            tensor<int32, []> gather_73_indices_0 = const()[name = tensor<string, []>("gather_73_indices_0"), val = tensor<int32, []>(2)];
            tensor<int32, []> gather_73_axis_0 = const()[name = tensor<string, []>("gather_73_axis_0"), val = tensor<int32, []>(0)];
            tensor<int32, []> gather_73_batch_dims_0 = const()[name = tensor<string, []>("gather_73_batch_dims_0"), val = tensor<int32, []>(0)];
            tensor<int32, []> gather_73 = gather(axis = gather_73_axis_0, batch_dims = gather_73_batch_dims_0, indices = gather_73_indices_0, x = var_460_shape_cast_fp16)[name = tensor<string, []>("gather_73")];
            tensor<int32, []> concat_35_values0_0 = const()[name = tensor<string, []>("concat_35_values0_0"), val = tensor<int32, []>(0)];
            tensor<int32, []> concat_35_values1_0 = const()[name = tensor<string, []>("concat_35_values1_0"), val = tensor<int32, []>(0)];
            tensor<int32, []> concat_35_values2_0 = const()[name = tensor<string, []>("concat_35_values2_0"), val = tensor<int32, []>(0)];
            tensor<int32, []> concat_35_axis_0 = const()[name = tensor<string, []>("concat_35_axis_0"), val = tensor<int32, []>(0)];
            tensor<bool, []> concat_35_interleave_0 = const()[name = tensor<string, []>("concat_35_interleave_0"), val = tensor<bool, []>(false)];
            tensor<int32, [4]> concat_35 = concat(axis = concat_35_axis_0, interleave = concat_35_interleave_0, values = (concat_35_values0_0, concat_35_values1_0, concat_35_values2_0, gather_73))[name = tensor<string, []>("concat_35")];
            tensor<int32, [4]> causal_mask_7_begin_0 = const()[name = tensor<string, []>("causal_mask_7_begin_0"), val = tensor<int32, [4]>([0, 0, 0, 0])];
            tensor<bool, [4]> causal_mask_7_end_mask_0 = const()[name = tensor<string, []>("causal_mask_7_end_mask_0"), val = tensor<bool, [4]>([true, true, true, false])];
            tensor<fp16, [?, ?, ?, ?]> causal_mask_7_cast_fp16 = slice_by_index(begin = causal_mask_7_begin_0, end = concat_35, end_mask = causal_mask_7_end_mask_0, x = attention_mask_cast_fp16)[name = tensor<string, []>("causal_mask_7_cast_fp16")];
            tensor<fp16, []> mul_11_y_0_to_fp16 = const()[name = tensor<string, []>("mul_11_y_0_to_fp16"), val = tensor<fp16, []>(0x1p-3)];
            tensor<fp16, [?, 12, ?, 64]> query_13_cast_fp16 = transpose(perm = query_13_perm_0, x = var_452_cast_fp16)[name = tensor<string, []>("transpose_18")];
            tensor<fp16, [?, 12, ?, 64]> mul_11_cast_fp16 = mul(x = query_13_cast_fp16, y = mul_11_y_0_to_fp16)[name = tensor<string, []>("mul_11_cast_fp16")];
            tensor<bool, []> matmul_16_transpose_y_0 = const()[name = tensor<string, []>("matmul_16_transpose_y_0"), val = tensor<bool, []>(true)];
            tensor<bool, []> matmul_16_transpose_x_0 = const()[name = tensor<string, []>("matmul_16_transpose_x_0"), val = tensor<bool, []>(false)];
            tensor<fp16, [?, 12, ?, ?]> matmul_16_cast_fp16 = matmul(transpose_x = matmul_16_transpose_x_0, transpose_y = matmul_16_transpose_y_0, x = mul_11_cast_fp16, y = key_13_cast_fp16)[name = tensor<string, []>("matmul_16_cast_fp16")];
            tensor<fp16, [?, 12, ?, ?]> add_3_cast_fp16 = add(x = matmul_16_cast_fp16, y = causal_mask_7_cast_fp16)[name = tensor<string, []>("add_3_cast_fp16")];
            tensor<int32, []> softmax_3_axis_0 = const()[name = tensor<string, []>("softmax_3_axis_0"), val = tensor<int32, []>(-1)];
            tensor<fp16, [?, 12, ?, ?]> softmax_3_cast_fp16 = softmax(axis = softmax_3_axis_0, x = add_3_cast_fp16)[name = tensor<string, []>("softmax_3_cast_fp16")];
            tensor<bool, []> attn_output_19_transpose_x_0 = const()[name = tensor<string, []>("attn_output_19_transpose_x_0"), val = tensor<bool, []>(false)];
            tensor<bool, []> attn_output_19_transpose_y_0 = const()[name = tensor<string, []>("attn_output_19_transpose_y_0"), val = tensor<bool, []>(false)];
            tensor<fp16, [?, 12, ?, 64]> value_13_cast_fp16 = transpose(perm = value_13_perm_0, x = var_458_cast_fp16)[name = tensor<string, []>("transpose_17")];
            tensor<fp16, [?, 12, ?, 64]> attn_output_19_cast_fp16 = matmul(transpose_x = attn_output_19_transpose_x_0, transpose_y = attn_output_19_transpose_y_0, x = softmax_3_cast_fp16, y = value_13_cast_fp16)[name = tensor<string, []>("attn_output_19_cast_fp16")];
            tensor<int32, [4]> var_469_perm_0 = const()[name = tensor<string, []>("op_469_perm_0"), val = tensor<int32, [4]>([0, 2, 1, 3])];
            tensor<fp16, [?, ?, 12, 64]> var_469_cast_fp16 = transpose(perm = var_469_perm_0, x = attn_output_19_cast_fp16)[name = tensor<string, []>("transpose_16")];
            tensor<int32, [4]> var_471_shape_cast_fp16 = shape(x = var_469_cast_fp16)[name = tensor<string, []>("op_471_shape_cast_fp16")];
            tensor<int32, []> gather_74_indices_0 = const()[name = tensor<string, []>("gather_74_indices_0"), val = tensor<int32, []>(0)];
            tensor<int32, []> gather_74_axis_0 = const()[name = tensor<string, []>("gather_74_axis_0"), val = tensor<int32, []>(0)];
            tensor<int32, []> gather_74_batch_dims_0 = const()[name = tensor<string, []>("gather_74_batch_dims_0"), val = tensor<int32, []>(0)];
            tensor<int32, []> gather_74 = gather(axis = gather_74_axis_0, batch_dims = gather_74_batch_dims_0, indices = gather_74_indices_0, x = var_471_shape_cast_fp16)[name = tensor<string, []>("gather_74")];
            tensor<int32, []> gather_75_indices_0 = const()[name = tensor<string, []>("gather_75_indices_0"), val = tensor<int32, []>(1)];
            tensor<int32, []> gather_75_axis_0 = const()[name = tensor<string, []>("gather_75_axis_0"), val = tensor<int32, []>(0)];
            tensor<int32, []> gather_75_batch_dims_0 = const()[name = tensor<string, []>("gather_75_batch_dims_0"), val = tensor<int32, []>(0)];
            tensor<int32, []> gather_75 = gather(axis = gather_75_axis_0, batch_dims = gather_75_batch_dims_0, indices = gather_75_indices_0, x = var_471_shape_cast_fp16)[name = tensor<string, []>("gather_75")];
            tensor<int32, []> concat_36_axis_0 = const()[name = tensor<string, []>("concat_36_axis_0"), val = tensor<int32, []>(0)];
            tensor<bool, []> concat_36_interleave_0 = const()[name = tensor<string, []>("concat_36_interleave_0"), val = tensor<bool, []>(false)];
            tensor<int32, [3]> concat_36 = concat(axis = concat_36_axis_0, interleave = concat_36_interleave_0, values = (gather_74, gather_75, var_23))[name = tensor<string, []>("concat_36")];
            tensor<fp16, [?, ?, 768]> var_474_cast_fp16 = reshape(shape = concat_36, x = var_469_cast_fp16)[name = tensor<string, []>("op_474_cast_fp16")];
            tensor<int32, [3]> var_478_shape_cast_fp16 = shape(x = var_474_cast_fp16)[name = tensor<string, []>("op_478_shape_cast_fp16")];
            tensor<int32, []> gather_76_indices_0 = const()[name = tensor<string, []>("gather_76_indices_0"), val = tensor<int32, []>(0)];
            tensor<int32, []> gather_76_axis_0 = const()[name = tensor<string, []>("gather_76_axis_0"), val = tensor<int32, []>(0)];
            tensor<int32, []> gather_76_batch_dims_0 = const()[name = tensor<string, []>("gather_76_batch_dims_0"), val = tensor<int32, []>(0)];
            tensor<int32, []> gather_76 = gather(axis = gather_76_axis_0, batch_dims = gather_76_batch_dims_0, indices = gather_76_indices_0, x = var_478_shape_cast_fp16)[name = tensor<string, []>("gather_76")];
            tensor<int32, []> gather_77_indices_0 = const()[name = tensor<string, []>("gather_77_indices_0"), val = tensor<int32, []>(1)];
            tensor<int32, []> gather_77_axis_0 = const()[name = tensor<string, []>("gather_77_axis_0"), val = tensor<int32, []>(0)];
            tensor<int32, []> gather_77_batch_dims_0 = const()[name = tensor<string, []>("gather_77_batch_dims_0"), val = tensor<int32, []>(0)];
            tensor<int32, []> gather_77 = gather(axis = gather_77_axis_0, batch_dims = gather_77_batch_dims_0, indices = gather_77_indices_0, x = var_478_shape_cast_fp16)[name = tensor<string, []>("gather_77")];
            tensor<int32, [2]> var_481 = const()[name = tensor<string, []>("op_481"), val = tensor<int32, [2]>([-1, 768])];
            tensor<fp16, [?, 768]> var_482_cast_fp16 = reshape(shape = var_481, x = var_474_cast_fp16)[name = tensor<string, []>("op_482_cast_fp16")];
            tensor<fp16, [768, 768]> transpose_13_cast_fp16_to_fp32_to_fp16_palettized = constexpr_lut_to_dense()[indices = tensor<uint8, [147456]>(BLOBFILE(path = tensor<string, []>("@model_path/weights/weight.bin"), offset = tensor<uint64, []>(15667072))), lut = tensor<fp16, [4]>([-0x1.12p-3, -0x1.39cp-5, 0x1.344p-5, 0x1.1p-3]), name = tensor<string, []>("transpose_13_cast_fp16_to_fp32_to_fp16_palettized"), shape = tensor<uint32, [2]>([768, 768])];
            tensor<fp16, [768]> x_55_bias_0_to_fp16 = const()[name = tensor<string, []>("x_55_bias_0_to_fp16"), val = tensor<fp16, [768]>(BLOBFILE(path = tensor<string, []>("@model_path/weights/weight.bin"), offset = tensor<uint64, []>(15814592)))];
            tensor<fp16, [?, 768]> x_55_cast_fp16 = linear(bias = x_55_bias_0_to_fp16, weight = transpose_13_cast_fp16_to_fp32_to_fp16_palettized, x = var_482_cast_fp16)[name = tensor<string, []>("x_55_cast_fp16")];
            tensor<int32, []> concat_37_axis_0 = const()[name = tensor<string, []>("concat_37_axis_0"), val = tensor<int32, []>(0)];
            tensor<bool, []> concat_37_interleave_0 = const()[name = tensor<string, []>("concat_37_interleave_0"), val = tensor<bool, []>(false)];
            tensor<int32, [3]> concat_37 = concat(axis = concat_37_axis_0, interleave = concat_37_interleave_0, values = (gather_76, gather_77, var_6))[name = tensor<string, []>("concat_37")];
            tensor<fp16, [?, ?, 768]> input_35_cast_fp16 = reshape(shape = concat_37, x = x_55_cast_fp16)[name = tensor<string, []>("input_35_cast_fp16")];
            tensor<fp16, [?, ?, 768]> input_37_cast_fp16 = add(x = input_35_cast_fp16, y = input_33_cast_fp16)[name = tensor<string, []>("input_37_cast_fp16")];
            tensor<int32, [1]> x_57_axes_0 = const()[name = tensor<string, []>("x_57_axes_0"), val = tensor<int32, [1]>([-1])];
            tensor<fp16, [768]> transformer_h_3_ln_2_weight_to_fp16 = const()[name = tensor<string, []>("transformer_h_3_ln_2_weight_to_fp16"), val = tensor<fp16, [768]>(BLOBFILE(path = tensor<string, []>("@model_path/weights/weight.bin"), offset = tensor<uint64, []>(15816192)))];
            tensor<fp16, [768]> transformer_h_3_ln_2_bias_to_fp16 = const()[name = tensor<string, []>("transformer_h_3_ln_2_bias_to_fp16"), val = tensor<fp16, [768]>(BLOBFILE(path = tensor<string, []>("@model_path/weights/weight.bin"), offset = tensor<uint64, []>(15817792)))];
            tensor<fp16, [?, ?, 768]> x_57_cast_fp16 = layer_norm(axes = x_57_axes_0, beta = transformer_h_3_ln_2_bias_to_fp16, epsilon = var_5_to_fp16, gamma = transformer_h_3_ln_2_weight_to_fp16, x = input_37_cast_fp16)[name = tensor<string, []>("x_57_cast_fp16")];
            tensor<int32, [3]> var_500_shape_cast_fp16 = shape(x = x_57_cast_fp16)[name = tensor<string, []>("op_500_shape_cast_fp16")];
            tensor<int32, []> gather_79_indices_0 = const()[name = tensor<string, []>("gather_79_indices_0"), val = tensor<int32, []>(0)];
            tensor<int32, []> gather_79_axis_0 = const()[name = tensor<string, []>("gather_79_axis_0"), val = tensor<int32, []>(0)];
            tensor<int32, []> gather_79_batch_dims_0 = const()[name = tensor<string, []>("gather_79_batch_dims_0"), val = tensor<int32, []>(0)];
            tensor<int32, []> gather_79 = gather(axis = gather_79_axis_0, batch_dims = gather_79_batch_dims_0, indices = gather_79_indices_0, x = var_500_shape_cast_fp16)[name = tensor<string, []>("gather_79")];
            tensor<int32, []> gather_80_indices_0 = const()[name = tensor<string, []>("gather_80_indices_0"), val = tensor<int32, []>(1)];
            tensor<int32, []> gather_80_axis_0 = const()[name = tensor<string, []>("gather_80_axis_0"), val = tensor<int32, []>(0)];
            tensor<int32, []> gather_80_batch_dims_0 = const()[name = tensor<string, []>("gather_80_batch_dims_0"), val = tensor<int32, []>(0)];
            tensor<int32, []> gather_80 = gather(axis = gather_80_axis_0, batch_dims = gather_80_batch_dims_0, indices = gather_80_indices_0, x = var_500_shape_cast_fp16)[name = tensor<string, []>("gather_80")];
            tensor<int32, [2]> var_503 = const()[name = tensor<string, []>("op_503"), val = tensor<int32, [2]>([-1, 768])];
            tensor<fp16, [?, 768]> var_504_cast_fp16 = reshape(shape = var_503, x = x_57_cast_fp16)[name = tensor<string, []>("op_504_cast_fp16")];
            tensor<fp16, [3072, 768]> transpose_14_cast_fp16_to_fp32_to_fp16_palettized = constexpr_lut_to_dense()[indices = tensor<uint8, [589824]>(BLOBFILE(path = tensor<string, []>("@model_path/weights/weight.bin"), offset = tensor<uint64, []>(15819392))), lut = tensor<fp16, [4]>([-0x1.a9cp-3, -0x1.0cp-4, 0x1.aa4p-5, 0x1.8bcp-3]), name = tensor<string, []>("transpose_14_cast_fp16_to_fp32_to_fp16_palettized"), shape = tensor<uint32, [2]>([3072, 768])];
            tensor<fp16, [3072]> x_59_bias_0_to_fp16 = const()[name = tensor<string, []>("x_59_bias_0_to_fp16"), val = tensor<fp16, [3072]>(BLOBFILE(path = tensor<string, []>("@model_path/weights/weight.bin"), offset = tensor<uint64, []>(16409280)))];
            tensor<fp16, [?, 3072]> x_59_cast_fp16 = linear(bias = x_59_bias_0_to_fp16, weight = transpose_14_cast_fp16_to_fp32_to_fp16_palettized, x = var_504_cast_fp16)[name = tensor<string, []>("x_59_cast_fp16")];
            tensor<int32, []> concat_38_axis_0 = const()[name = tensor<string, []>("concat_38_axis_0"), val = tensor<int32, []>(0)];
            tensor<bool, []> concat_38_interleave_0 = const()[name = tensor<string, []>("concat_38_interleave_0"), val = tensor<bool, []>(false)];
            tensor<int32, [3]> concat_38 = concat(axis = concat_38_axis_0, interleave = concat_38_interleave_0, values = (gather_79, gather_80, var_11))[name = tensor<string, []>("concat_38")];
            tensor<fp16, [?, ?, 3072]> input_39_cast_fp16 = reshape(shape = concat_38, x = x_59_cast_fp16)[name = tensor<string, []>("input_39_cast_fp16")];
            tensor<string, []> x_61_mode_0 = const()[name = tensor<string, []>("x_61_mode_0"), val = tensor<string, []>("TANH_APPROXIMATION")];
            tensor<fp16, [?, ?, 3072]> x_61_cast_fp16 = gelu(mode = x_61_mode_0, x = input_39_cast_fp16)[name = tensor<string, []>("x_61_cast_fp16")];
            tensor<int32, [3]> var_522_shape_cast_fp16 = shape(x = x_61_cast_fp16)[name = tensor<string, []>("op_522_shape_cast_fp16")];
            tensor<int32, []> gather_82_indices_0 = const()[name = tensor<string, []>("gather_82_indices_0"), val = tensor<int32, []>(0)];
            tensor<int32, []> gather_82_axis_0 = const()[name = tensor<string, []>("gather_82_axis_0"), val = tensor<int32, []>(0)];
            tensor<int32, []> gather_82_batch_dims_0 = const()[name = tensor<string, []>("gather_82_batch_dims_0"), val = tensor<int32, []>(0)];
            tensor<int32, []> gather_82 = gather(axis = gather_82_axis_0, batch_dims = gather_82_batch_dims_0, indices = gather_82_indices_0, x = var_522_shape_cast_fp16)[name = tensor<string, []>("gather_82")];
            tensor<int32, []> gather_83_indices_0 = const()[name = tensor<string, []>("gather_83_indices_0"), val = tensor<int32, []>(1)];
            tensor<int32, []> gather_83_axis_0 = const()[name = tensor<string, []>("gather_83_axis_0"), val = tensor<int32, []>(0)];
            tensor<int32, []> gather_83_batch_dims_0 = const()[name = tensor<string, []>("gather_83_batch_dims_0"), val = tensor<int32, []>(0)];
            tensor<int32, []> gather_83 = gather(axis = gather_83_axis_0, batch_dims = gather_83_batch_dims_0, indices = gather_83_indices_0, x = var_522_shape_cast_fp16)[name = tensor<string, []>("gather_83")];
            tensor<int32, [2]> var_525 = const()[name = tensor<string, []>("op_525"), val = tensor<int32, [2]>([-1, 3072])];
            tensor<fp16, [?, 3072]> var_526_cast_fp16 = reshape(shape = var_525, x = x_61_cast_fp16)[name = tensor<string, []>("op_526_cast_fp16")];
            tensor<fp16, [768, 3072]> transpose_15_cast_fp16_to_fp32_to_fp16_palettized = constexpr_lut_to_dense()[indices = tensor<uint8, [589824]>(BLOBFILE(path = tensor<string, []>("@model_path/weights/weight.bin"), offset = tensor<uint64, []>(16415488))), lut = tensor<fp16, [4]>([-0x1.17cp-3, -0x1.33p-5, 0x1.61p-5, 0x1.25cp-3]), name = tensor<string, []>("transpose_15_cast_fp16_to_fp32_to_fp16_palettized"), shape = tensor<uint32, [2]>([768, 3072])];
            tensor<fp16, [768]> x_63_bias_0_to_fp16 = const()[name = tensor<string, []>("x_63_bias_0_to_fp16"), val = tensor<fp16, [768]>(BLOBFILE(path = tensor<string, []>("@model_path/weights/weight.bin"), offset = tensor<uint64, []>(17005376)))];
            tensor<fp16, [?, 768]> x_63_cast_fp16 = linear(bias = x_63_bias_0_to_fp16, weight = transpose_15_cast_fp16_to_fp32_to_fp16_palettized, x = var_526_cast_fp16)[name = tensor<string, []>("x_63_cast_fp16")];
            tensor<int32, []> concat_39_axis_0 = const()[name = tensor<string, []>("concat_39_axis_0"), val = tensor<int32, []>(0)];
            tensor<bool, []> concat_39_interleave_0 = const()[name = tensor<string, []>("concat_39_interleave_0"), val = tensor<bool, []>(false)];
            tensor<int32, [3]> concat_39 = concat(axis = concat_39_axis_0, interleave = concat_39_interleave_0, values = (gather_82, gather_83, var_6))[name = tensor<string, []>("concat_39")];
            tensor<fp16, [?, ?, 768]> input_41_cast_fp16 = reshape(shape = concat_39, x = x_63_cast_fp16)[name = tensor<string, []>("input_41_cast_fp16")];
            tensor<fp16, [?, ?, 768]> input_43_cast_fp16 = add(x = input_37_cast_fp16, y = input_41_cast_fp16)[name = tensor<string, []>("input_43_cast_fp16")];
            tensor<int32, [1]> x_65_axes_0 = const()[name = tensor<string, []>("x_65_axes_0"), val = tensor<int32, [1]>([-1])];
            tensor<fp16, [768]> transformer_h_4_ln_1_weight_to_fp16 = const()[name = tensor<string, []>("transformer_h_4_ln_1_weight_to_fp16"), val = tensor<fp16, [768]>(BLOBFILE(path = tensor<string, []>("@model_path/weights/weight.bin"), offset = tensor<uint64, []>(17006976)))];
            tensor<fp16, [768]> transformer_h_4_ln_1_bias_to_fp16 = const()[name = tensor<string, []>("transformer_h_4_ln_1_bias_to_fp16"), val = tensor<fp16, [768]>(BLOBFILE(path = tensor<string, []>("@model_path/weights/weight.bin"), offset = tensor<uint64, []>(17008576)))];
            tensor<fp16, [?, ?, 768]> x_65_cast_fp16 = layer_norm(axes = x_65_axes_0, beta = transformer_h_4_ln_1_bias_to_fp16, epsilon = var_5_to_fp16, gamma = transformer_h_4_ln_1_weight_to_fp16, x = input_43_cast_fp16)[name = tensor<string, []>("x_65_cast_fp16")];
            tensor<int32, [3]> var_548_shape_cast_fp16 = shape(x = x_65_cast_fp16)[name = tensor<string, []>("op_548_shape_cast_fp16")];
            tensor<int32, []> gather_85_indices_0 = const()[name = tensor<string, []>("gather_85_indices_0"), val = tensor<int32, []>(0)];
            tensor<int32, []> gather_85_axis_0 = const()[name = tensor<string, []>("gather_85_axis_0"), val = tensor<int32, []>(0)];
            tensor<int32, []> gather_85_batch_dims_0 = const()[name = tensor<string, []>("gather_85_batch_dims_0"), val = tensor<int32, []>(0)];
            tensor<int32, []> gather_85 = gather(axis = gather_85_axis_0, batch_dims = gather_85_batch_dims_0, indices = gather_85_indices_0, x = var_548_shape_cast_fp16)[name = tensor<string, []>("gather_85")];
            tensor<int32, []> gather_86_indices_0 = const()[name = tensor<string, []>("gather_86_indices_0"), val = tensor<int32, []>(1)];
            tensor<int32, []> gather_86_axis_0 = const()[name = tensor<string, []>("gather_86_axis_0"), val = tensor<int32, []>(0)];
            tensor<int32, []> gather_86_batch_dims_0 = const()[name = tensor<string, []>("gather_86_batch_dims_0"), val = tensor<int32, []>(0)];
            tensor<int32, []> gather_86 = gather(axis = gather_86_axis_0, batch_dims = gather_86_batch_dims_0, indices = gather_86_indices_0, x = var_548_shape_cast_fp16)[name = tensor<string, []>("gather_86")];
            tensor<int32, [2]> var_551 = const()[name = tensor<string, []>("op_551"), val = tensor<int32, [2]>([-1, 768])];
            tensor<fp16, [?, 768]> var_552_cast_fp16 = reshape(shape = var_551, x = x_65_cast_fp16)[name = tensor<string, []>("op_552_cast_fp16")];
            tensor<fp16, [2304, 768]> transpose_16_cast_fp16_to_fp32_to_fp16_palettized = constexpr_lut_to_dense()[indices = tensor<uint8, [442368]>(BLOBFILE(path = tensor<string, []>("@model_path/weights/weight.bin"), offset = tensor<uint64, []>(17010176))), lut = tensor<fp16, [4]>([-0x1.ebcp-3, -0x1.0e4p-4, 0x1.0e8p-4, 0x1.ecp-3]), name = tensor<string, []>("transpose_16_cast_fp16_to_fp32_to_fp16_palettized"), shape = tensor<uint32, [2]>([2304, 768])];
            tensor<fp16, [2304]> x_67_bias_0_to_fp16 = const()[name = tensor<string, []>("x_67_bias_0_to_fp16"), val = tensor<fp16, [2304]>(BLOBFILE(path = tensor<string, []>("@model_path/weights/weight.bin"), offset = tensor<uint64, []>(17452608)))];
            tensor<fp16, [?, 2304]> x_67_cast_fp16 = linear(bias = x_67_bias_0_to_fp16, weight = transpose_16_cast_fp16_to_fp32_to_fp16_palettized, x = var_552_cast_fp16)[name = tensor<string, []>("x_67_cast_fp16")];
            tensor<int32, []> concat_40_axis_0 = const()[name = tensor<string, []>("concat_40_axis_0"), val = tensor<int32, []>(0)];
            tensor<bool, []> concat_40_interleave_0 = const()[name = tensor<string, []>("concat_40_interleave_0"), val = tensor<bool, []>(false)];
            tensor<int32, [3]> concat_40 = concat(axis = concat_40_axis_0, interleave = concat_40_interleave_0, values = (gather_85, gather_86, var_9))[name = tensor<string, []>("concat_40")];
            tensor<fp16, [?, ?, 2304]> var_555_cast_fp16 = reshape(shape = concat_40, x = x_67_cast_fp16)[name = tensor<string, []>("op_555_cast_fp16")];
            tensor<int32, [3]> tile_4 = const()[name = tensor<string, []>("tile_4"), val = tensor<int32, [3]>([768, 768, 768])];
            tensor<int32, []> var_556_axis_0 = const()[name = tensor<string, []>("op_556_axis_0"), val = tensor<int32, []>(2)];
            tensor<fp16, [?, ?, 768]> var_556_cast_fp16_0, tensor<fp16, [?, ?, 768]> var_556_cast_fp16_1, tensor<fp16, [?, ?, 768]> var_556_cast_fp16_2 = split(axis = var_556_axis_0, split_sizes = tile_4, x = var_555_cast_fp16)[name = tensor<string, []>("op_556_cast_fp16")];
            tensor<int32, [3]> var_560_shape_cast_fp16 = shape(x = var_556_cast_fp16_0)[name = tensor<string, []>("op_560_shape_cast_fp16")];
            tensor<int32, []> gather_89_indices_0 = const()[name = tensor<string, []>("gather_89_indices_0"), val = tensor<int32, []>(0)];
            tensor<int32, []> gather_89_axis_0 = const()[name = tensor<string, []>("gather_89_axis_0"), val = tensor<int32, []>(0)];
            tensor<int32, []> gather_89_batch_dims_0 = const()[name = tensor<string, []>("gather_89_batch_dims_0"), val = tensor<int32, []>(0)];
            tensor<int32, []> gather_89 = gather(axis = gather_89_axis_0, batch_dims = gather_89_batch_dims_0, indices = gather_89_indices_0, x = var_560_shape_cast_fp16)[name = tensor<string, []>("gather_89")];
            tensor<int32, []> gather_90_indices_0 = const()[name = tensor<string, []>("gather_90_indices_0"), val = tensor<int32, []>(1)];
            tensor<int32, []> gather_90_axis_0 = const()[name = tensor<string, []>("gather_90_axis_0"), val = tensor<int32, []>(0)];
            tensor<int32, []> gather_90_batch_dims_0 = const()[name = tensor<string, []>("gather_90_batch_dims_0"), val = tensor<int32, []>(0)];
            tensor<int32, []> gather_90 = gather(axis = gather_90_axis_0, batch_dims = gather_90_batch_dims_0, indices = gather_90_indices_0, x = var_560_shape_cast_fp16)[name = tensor<string, []>("gather_90")];
            tensor<int32, [3]> var_562_shape_cast_fp16 = shape(x = var_556_cast_fp16_1)[name = tensor<string, []>("op_562_shape_cast_fp16")];
            tensor<int32, []> gather_91_indices_0 = const()[name = tensor<string, []>("gather_91_indices_0"), val = tensor<int32, []>(0)];
            tensor<int32, []> gather_91_axis_0 = const()[name = tensor<string, []>("gather_91_axis_0"), val = tensor<int32, []>(0)];
            tensor<int32, []> gather_91_batch_dims_0 = const()[name = tensor<string, []>("gather_91_batch_dims_0"), val = tensor<int32, []>(0)];
            tensor<int32, []> gather_91 = gather(axis = gather_91_axis_0, batch_dims = gather_91_batch_dims_0, indices = gather_91_indices_0, x = var_562_shape_cast_fp16)[name = tensor<string, []>("gather_91")];
            tensor<int32, [3]> var_563_shape_cast_fp16 = shape(x = var_556_cast_fp16_1)[name = tensor<string, []>("op_563_shape_cast_fp16")];
            tensor<int32, []> gather_92_indices_0 = const()[name = tensor<string, []>("gather_92_indices_0"), val = tensor<int32, []>(1)];
            tensor<int32, []> gather_92_axis_0 = const()[name = tensor<string, []>("gather_92_axis_0"), val = tensor<int32, []>(0)];
            tensor<int32, []> gather_92_batch_dims_0 = const()[name = tensor<string, []>("gather_92_batch_dims_0"), val = tensor<int32, []>(0)];
            tensor<int32, []> gather_92 = gather(axis = gather_92_axis_0, batch_dims = gather_92_batch_dims_0, indices = gather_92_indices_0, x = var_563_shape_cast_fp16)[name = tensor<string, []>("gather_92")];
            tensor<int32, []> concat_41_axis_0 = const()[name = tensor<string, []>("concat_41_axis_0"), val = tensor<int32, []>(0)];
            tensor<bool, []> concat_41_interleave_0 = const()[name = tensor<string, []>("concat_41_interleave_0"), val = tensor<bool, []>(false)];
            tensor<int32, [4]> concat_41 = concat(axis = concat_41_axis_0, interleave = concat_41_interleave_0, values = (gather_89, gather_90, var_23, var_8))[name = tensor<string, []>("concat_41")];
            tensor<fp16, [?, ?, 12, 64]> var_565_cast_fp16 = reshape(shape = concat_41, x = var_556_cast_fp16_0)[name = tensor<string, []>("op_565_cast_fp16")];
            tensor<int32, [4]> query_17_perm_0 = const()[name = tensor<string, []>("query_17_perm_0"), val = tensor<int32, [4]>([0, 2, 1, 3])];
            tensor<int32, []> concat_42_axis_0 = const()[name = tensor<string, []>("concat_42_axis_0"), val = tensor<int32, []>(0)];
            tensor<bool, []> concat_42_interleave_0 = const()[name = tensor<string, []>("concat_42_interleave_0"), val = tensor<bool, []>(false)];
            tensor<int32, [4]> concat_42 = concat(axis = concat_42_axis_0, interleave = concat_42_interleave_0, values = (gather_91, gather_92, var_23, var_8))[name = tensor<string, []>("concat_42")];
            tensor<fp16, [?, ?, 12, 64]> var_568_cast_fp16 = reshape(shape = concat_42, x = var_556_cast_fp16_1)[name = tensor<string, []>("op_568_cast_fp16")];
            tensor<int32, [4]> key_17_perm_0 = const()[name = tensor<string, []>("key_17_perm_0"), val = tensor<int32, [4]>([0, 2, -3, -1])];
            tensor<string, []> key_17_cast_fp16_to_fp32_dtype_0 = const()[name = tensor<string, []>("key_17_cast_fp16_to_fp32_dtype_0"), val = tensor<string, []>("fp32")];
            tensor<fp16, [?, ?, 12, 64]> var_571_cast_fp16 = reshape(shape = concat_42, x = var_556_cast_fp16_2)[name = tensor<string, []>("op_571_cast_fp16")];
            tensor<int32, [4]> value_17_perm_0 = const()[name = tensor<string, []>("value_17_perm_0"), val = tensor<int32, [4]>([0, 2, -3, -1])];
            tensor<string, []> value_17_cast_fp16_to_fp32_dtype_0 = const()[name = tensor<string, []>("value_17_cast_fp16_to_fp32_dtype_0"), val = tensor<string, []>("fp32")];
            tensor<fp16, [?, 12, ?, 64]> key_17_cast_fp16 = transpose(perm = key_17_perm_0, x = var_568_cast_fp16)[name = tensor<string, []>("transpose_15")];
            tensor<int32, [4]> var_573_shape_cast_fp16 = shape(x = key_17_cast_fp16)[name = tensor<string, []>("op_573_shape_cast_fp16")];
            tensor<int32, []> gather_93_indices_0 = const()[name = tensor<string, []>("gather_93_indices_0"), val = tensor<int32, []>(2)];
            tensor<int32, []> gather_93_axis_0 = const()[name = tensor<string, []>("gather_93_axis_0"), val = tensor<int32, []>(0)];
            tensor<int32, []> gather_93_batch_dims_0 = const()[name = tensor<string, []>("gather_93_batch_dims_0"), val = tensor<int32, []>(0)];
            tensor<int32, []> gather_93 = gather(axis = gather_93_axis_0, batch_dims = gather_93_batch_dims_0, indices = gather_93_indices_0, x = var_573_shape_cast_fp16)[name = tensor<string, []>("gather_93")];
            tensor<int32, []> concat_44_values0_0 = const()[name = tensor<string, []>("concat_44_values0_0"), val = tensor<int32, []>(0)];
            tensor<int32, []> concat_44_values1_0 = const()[name = tensor<string, []>("concat_44_values1_0"), val = tensor<int32, []>(0)];
            tensor<int32, []> concat_44_values2_0 = const()[name = tensor<string, []>("concat_44_values2_0"), val = tensor<int32, []>(0)];
            tensor<int32, []> concat_44_axis_0 = const()[name = tensor<string, []>("concat_44_axis_0"), val = tensor<int32, []>(0)];
            tensor<bool, []> concat_44_interleave_0 = const()[name = tensor<string, []>("concat_44_interleave_0"), val = tensor<bool, []>(false)];
            tensor<int32, [4]> concat_44 = concat(axis = concat_44_axis_0, interleave = concat_44_interleave_0, values = (concat_44_values0_0, concat_44_values1_0, concat_44_values2_0, gather_93))[name = tensor<string, []>("concat_44")];
            tensor<int32, [4]> causal_mask_9_begin_0 = const()[name = tensor<string, []>("causal_mask_9_begin_0"), val = tensor<int32, [4]>([0, 0, 0, 0])];
            tensor<bool, [4]> causal_mask_9_end_mask_0 = const()[name = tensor<string, []>("causal_mask_9_end_mask_0"), val = tensor<bool, [4]>([true, true, true, false])];
            tensor<fp16, [?, ?, ?, ?]> causal_mask_9_cast_fp16 = slice_by_index(begin = causal_mask_9_begin_0, end = concat_44, end_mask = causal_mask_9_end_mask_0, x = attention_mask_cast_fp16)[name = tensor<string, []>("causal_mask_9_cast_fp16")];
            tensor<fp16, []> mul_14_y_0_to_fp16 = const()[name = tensor<string, []>("mul_14_y_0_to_fp16"), val = tensor<fp16, []>(0x1p-3)];
            tensor<fp16, [?, 12, ?, 64]> query_17_cast_fp16 = transpose(perm = query_17_perm_0, x = var_565_cast_fp16)[name = tensor<string, []>("transpose_14")];
            tensor<fp16, [?, 12, ?, 64]> mul_14_cast_fp16 = mul(x = query_17_cast_fp16, y = mul_14_y_0_to_fp16)[name = tensor<string, []>("mul_14_cast_fp16")];
            tensor<bool, []> matmul_21_transpose_y_0 = const()[name = tensor<string, []>("matmul_21_transpose_y_0"), val = tensor<bool, []>(true)];
            tensor<bool, []> matmul_21_transpose_x_0 = const()[name = tensor<string, []>("matmul_21_transpose_x_0"), val = tensor<bool, []>(false)];
            tensor<fp16, [?, 12, ?, ?]> matmul_21_cast_fp16 = matmul(transpose_x = matmul_21_transpose_x_0, transpose_y = matmul_21_transpose_y_0, x = mul_14_cast_fp16, y = key_17_cast_fp16)[name = tensor<string, []>("matmul_21_cast_fp16")];
            tensor<fp16, [?, 12, ?, ?]> add_4_cast_fp16 = add(x = matmul_21_cast_fp16, y = causal_mask_9_cast_fp16)[name = tensor<string, []>("add_4_cast_fp16")];
            tensor<int32, []> softmax_4_axis_0 = const()[name = tensor<string, []>("softmax_4_axis_0"), val = tensor<int32, []>(-1)];
            tensor<fp16, [?, 12, ?, ?]> softmax_4_cast_fp16 = softmax(axis = softmax_4_axis_0, x = add_4_cast_fp16)[name = tensor<string, []>("softmax_4_cast_fp16")];
            tensor<bool, []> attn_output_25_transpose_x_0 = const()[name = tensor<string, []>("attn_output_25_transpose_x_0"), val = tensor<bool, []>(false)];
            tensor<bool, []> attn_output_25_transpose_y_0 = const()[name = tensor<string, []>("attn_output_25_transpose_y_0"), val = tensor<bool, []>(false)];
            tensor<fp16, [?, 12, ?, 64]> value_17_cast_fp16 = transpose(perm = value_17_perm_0, x = var_571_cast_fp16)[name = tensor<string, []>("transpose_13")];
            tensor<fp16, [?, 12, ?, 64]> attn_output_25_cast_fp16 = matmul(transpose_x = attn_output_25_transpose_x_0, transpose_y = attn_output_25_transpose_y_0, x = softmax_4_cast_fp16, y = value_17_cast_fp16)[name = tensor<string, []>("attn_output_25_cast_fp16")];
            tensor<int32, [4]> var_582_perm_0 = const()[name = tensor<string, []>("op_582_perm_0"), val = tensor<int32, [4]>([0, 2, 1, 3])];
            tensor<fp16, [?, ?, 12, 64]> var_582_cast_fp16 = transpose(perm = var_582_perm_0, x = attn_output_25_cast_fp16)[name = tensor<string, []>("transpose_12")];
            tensor<int32, [4]> var_584_shape_cast_fp16 = shape(x = var_582_cast_fp16)[name = tensor<string, []>("op_584_shape_cast_fp16")];
            tensor<int32, []> gather_94_indices_0 = const()[name = tensor<string, []>("gather_94_indices_0"), val = tensor<int32, []>(0)];
            tensor<int32, []> gather_94_axis_0 = const()[name = tensor<string, []>("gather_94_axis_0"), val = tensor<int32, []>(0)];
            tensor<int32, []> gather_94_batch_dims_0 = const()[name = tensor<string, []>("gather_94_batch_dims_0"), val = tensor<int32, []>(0)];
            tensor<int32, []> gather_94 = gather(axis = gather_94_axis_0, batch_dims = gather_94_batch_dims_0, indices = gather_94_indices_0, x = var_584_shape_cast_fp16)[name = tensor<string, []>("gather_94")];
            tensor<int32, []> gather_95_indices_0 = const()[name = tensor<string, []>("gather_95_indices_0"), val = tensor<int32, []>(1)];
            tensor<int32, []> gather_95_axis_0 = const()[name = tensor<string, []>("gather_95_axis_0"), val = tensor<int32, []>(0)];
            tensor<int32, []> gather_95_batch_dims_0 = const()[name = tensor<string, []>("gather_95_batch_dims_0"), val = tensor<int32, []>(0)];
            tensor<int32, []> gather_95 = gather(axis = gather_95_axis_0, batch_dims = gather_95_batch_dims_0, indices = gather_95_indices_0, x = var_584_shape_cast_fp16)[name = tensor<string, []>("gather_95")];
            tensor<int32, []> concat_45_axis_0 = const()[name = tensor<string, []>("concat_45_axis_0"), val = tensor<int32, []>(0)];
            tensor<bool, []> concat_45_interleave_0 = const()[name = tensor<string, []>("concat_45_interleave_0"), val = tensor<bool, []>(false)];
            tensor<int32, [3]> concat_45 = concat(axis = concat_45_axis_0, interleave = concat_45_interleave_0, values = (gather_94, gather_95, var_23))[name = tensor<string, []>("concat_45")];
            tensor<fp16, [?, ?, 768]> var_587_cast_fp16 = reshape(shape = concat_45, x = var_582_cast_fp16)[name = tensor<string, []>("op_587_cast_fp16")];
            tensor<int32, [3]> var_591_shape_cast_fp16 = shape(x = var_587_cast_fp16)[name = tensor<string, []>("op_591_shape_cast_fp16")];
            tensor<int32, []> gather_96_indices_0 = const()[name = tensor<string, []>("gather_96_indices_0"), val = tensor<int32, []>(0)];
            tensor<int32, []> gather_96_axis_0 = const()[name = tensor<string, []>("gather_96_axis_0"), val = tensor<int32, []>(0)];
            tensor<int32, []> gather_96_batch_dims_0 = const()[name = tensor<string, []>("gather_96_batch_dims_0"), val = tensor<int32, []>(0)];
            tensor<int32, []> gather_96 = gather(axis = gather_96_axis_0, batch_dims = gather_96_batch_dims_0, indices = gather_96_indices_0, x = var_591_shape_cast_fp16)[name = tensor<string, []>("gather_96")];
            tensor<int32, []> gather_97_indices_0 = const()[name = tensor<string, []>("gather_97_indices_0"), val = tensor<int32, []>(1)];
            tensor<int32, []> gather_97_axis_0 = const()[name = tensor<string, []>("gather_97_axis_0"), val = tensor<int32, []>(0)];
            tensor<int32, []> gather_97_batch_dims_0 = const()[name = tensor<string, []>("gather_97_batch_dims_0"), val = tensor<int32, []>(0)];
            tensor<int32, []> gather_97 = gather(axis = gather_97_axis_0, batch_dims = gather_97_batch_dims_0, indices = gather_97_indices_0, x = var_591_shape_cast_fp16)[name = tensor<string, []>("gather_97")];
            tensor<int32, [2]> var_594 = const()[name = tensor<string, []>("op_594"), val = tensor<int32, [2]>([-1, 768])];
            tensor<fp16, [?, 768]> var_595_cast_fp16 = reshape(shape = var_594, x = var_587_cast_fp16)[name = tensor<string, []>("op_595_cast_fp16")];
            tensor<fp16, [768, 768]> transpose_17_cast_fp16_to_fp32_to_fp16_palettized = constexpr_lut_to_dense()[indices = tensor<uint8, [147456]>(BLOBFILE(path = tensor<string, []>("@model_path/weights/weight.bin"), offset = tensor<uint64, []>(17457280))), lut = tensor<fp16, [4]>([-0x1.314p-3, -0x1.544p-5, 0x1.5acp-5, 0x1.318p-3]), name = tensor<string, []>("transpose_17_cast_fp16_to_fp32_to_fp16_palettized"), shape = tensor<uint32, [2]>([768, 768])];
            tensor<fp16, [768]> x_71_bias_0_to_fp16 = const()[name = tensor<string, []>("x_71_bias_0_to_fp16"), val = tensor<fp16, [768]>(BLOBFILE(path = tensor<string, []>("@model_path/weights/weight.bin"), offset = tensor<uint64, []>(17604800)))];
            tensor<fp16, [?, 768]> x_71_cast_fp16 = linear(bias = x_71_bias_0_to_fp16, weight = transpose_17_cast_fp16_to_fp32_to_fp16_palettized, x = var_595_cast_fp16)[name = tensor<string, []>("x_71_cast_fp16")];
            tensor<int32, []> concat_46_axis_0 = const()[name = tensor<string, []>("concat_46_axis_0"), val = tensor<int32, []>(0)];
            tensor<bool, []> concat_46_interleave_0 = const()[name = tensor<string, []>("concat_46_interleave_0"), val = tensor<bool, []>(false)];
            tensor<int32, [3]> concat_46 = concat(axis = concat_46_axis_0, interleave = concat_46_interleave_0, values = (gather_96, gather_97, var_6))[name = tensor<string, []>("concat_46")];
            tensor<fp16, [?, ?, 768]> input_45_cast_fp16 = reshape(shape = concat_46, x = x_71_cast_fp16)[name = tensor<string, []>("input_45_cast_fp16")];
            tensor<fp16, [?, ?, 768]> input_47_cast_fp16 = add(x = input_45_cast_fp16, y = input_43_cast_fp16)[name = tensor<string, []>("input_47_cast_fp16")];
            tensor<int32, [1]> x_73_axes_0 = const()[name = tensor<string, []>("x_73_axes_0"), val = tensor<int32, [1]>([-1])];
            tensor<fp16, [768]> transformer_h_4_ln_2_weight_to_fp16 = const()[name = tensor<string, []>("transformer_h_4_ln_2_weight_to_fp16"), val = tensor<fp16, [768]>(BLOBFILE(path = tensor<string, []>("@model_path/weights/weight.bin"), offset = tensor<uint64, []>(17606400)))];
            tensor<fp16, [768]> transformer_h_4_ln_2_bias_to_fp16 = const()[name = tensor<string, []>("transformer_h_4_ln_2_bias_to_fp16"), val = tensor<fp16, [768]>(BLOBFILE(path = tensor<string, []>("@model_path/weights/weight.bin"), offset = tensor<uint64, []>(17608000)))];
            tensor<fp16, [?, ?, 768]> x_73_cast_fp16 = layer_norm(axes = x_73_axes_0, beta = transformer_h_4_ln_2_bias_to_fp16, epsilon = var_5_to_fp16, gamma = transformer_h_4_ln_2_weight_to_fp16, x = input_47_cast_fp16)[name = tensor<string, []>("x_73_cast_fp16")];
            tensor<int32, [3]> var_613_shape_cast_fp16 = shape(x = x_73_cast_fp16)[name = tensor<string, []>("op_613_shape_cast_fp16")];
            tensor<int32, []> gather_99_indices_0 = const()[name = tensor<string, []>("gather_99_indices_0"), val = tensor<int32, []>(0)];
            tensor<int32, []> gather_99_axis_0 = const()[name = tensor<string, []>("gather_99_axis_0"), val = tensor<int32, []>(0)];
            tensor<int32, []> gather_99_batch_dims_0 = const()[name = tensor<string, []>("gather_99_batch_dims_0"), val = tensor<int32, []>(0)];
            tensor<int32, []> gather_99 = gather(axis = gather_99_axis_0, batch_dims = gather_99_batch_dims_0, indices = gather_99_indices_0, x = var_613_shape_cast_fp16)[name = tensor<string, []>("gather_99")];
            tensor<int32, []> gather_100_indices_0 = const()[name = tensor<string, []>("gather_100_indices_0"), val = tensor<int32, []>(1)];
            tensor<int32, []> gather_100_axis_0 = const()[name = tensor<string, []>("gather_100_axis_0"), val = tensor<int32, []>(0)];
            tensor<int32, []> gather_100_batch_dims_0 = const()[name = tensor<string, []>("gather_100_batch_dims_0"), val = tensor<int32, []>(0)];
            tensor<int32, []> gather_100 = gather(axis = gather_100_axis_0, batch_dims = gather_100_batch_dims_0, indices = gather_100_indices_0, x = var_613_shape_cast_fp16)[name = tensor<string, []>("gather_100")];
            tensor<int32, [2]> var_616 = const()[name = tensor<string, []>("op_616"), val = tensor<int32, [2]>([-1, 768])];
            tensor<fp16, [?, 768]> var_617_cast_fp16 = reshape(shape = var_616, x = x_73_cast_fp16)[name = tensor<string, []>("op_617_cast_fp16")];
            tensor<fp16, [3072, 768]> transpose_18_cast_fp16_to_fp32_to_fp16_palettized = constexpr_lut_to_dense()[indices = tensor<uint8, [589824]>(BLOBFILE(path = tensor<string, []>("@model_path/weights/weight.bin"), offset = tensor<uint64, []>(17609600))), lut = tensor<fp16, [4]>([-0x1.a54p-3, -0x1.fc8p-5, 0x1.c7p-5, 0x1.978p-3]), name = tensor<string, []>("transpose_18_cast_fp16_to_fp32_to_fp16_palettized"), shape = tensor<uint32, [2]>([3072, 768])];
            tensor<fp16, [3072]> x_75_bias_0_to_fp16 = const()[name = tensor<string, []>("x_75_bias_0_to_fp16"), val = tensor<fp16, [3072]>(BLOBFILE(path = tensor<string, []>("@model_path/weights/weight.bin"), offset = tensor<uint64, []>(18199488)))];
            tensor<fp16, [?, 3072]> x_75_cast_fp16 = linear(bias = x_75_bias_0_to_fp16, weight = transpose_18_cast_fp16_to_fp32_to_fp16_palettized, x = var_617_cast_fp16)[name = tensor<string, []>("x_75_cast_fp16")];
            tensor<int32, []> concat_47_axis_0 = const()[name = tensor<string, []>("concat_47_axis_0"), val = tensor<int32, []>(0)];
            tensor<bool, []> concat_47_interleave_0 = const()[name = tensor<string, []>("concat_47_interleave_0"), val = tensor<bool, []>(false)];
            tensor<int32, [3]> concat_47 = concat(axis = concat_47_axis_0, interleave = concat_47_interleave_0, values = (gather_99, gather_100, var_11))[name = tensor<string, []>("concat_47")];
            tensor<fp16, [?, ?, 3072]> input_49_cast_fp16 = reshape(shape = concat_47, x = x_75_cast_fp16)[name = tensor<string, []>("input_49_cast_fp16")];
            tensor<string, []> x_77_mode_0 = const()[name = tensor<string, []>("x_77_mode_0"), val = tensor<string, []>("TANH_APPROXIMATION")];
            tensor<fp16, [?, ?, 3072]> x_77_cast_fp16 = gelu(mode = x_77_mode_0, x = input_49_cast_fp16)[name = tensor<string, []>("x_77_cast_fp16")];
            tensor<int32, [3]> var_635_shape_cast_fp16 = shape(x = x_77_cast_fp16)[name = tensor<string, []>("op_635_shape_cast_fp16")];
            tensor<int32, []> gather_102_indices_0 = const()[name = tensor<string, []>("gather_102_indices_0"), val = tensor<int32, []>(0)];
            tensor<int32, []> gather_102_axis_0 = const()[name = tensor<string, []>("gather_102_axis_0"), val = tensor<int32, []>(0)];
            tensor<int32, []> gather_102_batch_dims_0 = const()[name = tensor<string, []>("gather_102_batch_dims_0"), val = tensor<int32, []>(0)];
            tensor<int32, []> gather_102 = gather(axis = gather_102_axis_0, batch_dims = gather_102_batch_dims_0, indices = gather_102_indices_0, x = var_635_shape_cast_fp16)[name = tensor<string, []>("gather_102")];
            tensor<int32, []> gather_103_indices_0 = const()[name = tensor<string, []>("gather_103_indices_0"), val = tensor<int32, []>(1)];
            tensor<int32, []> gather_103_axis_0 = const()[name = tensor<string, []>("gather_103_axis_0"), val = tensor<int32, []>(0)];
            tensor<int32, []> gather_103_batch_dims_0 = const()[name = tensor<string, []>("gather_103_batch_dims_0"), val = tensor<int32, []>(0)];
            tensor<int32, []> gather_103 = gather(axis = gather_103_axis_0, batch_dims = gather_103_batch_dims_0, indices = gather_103_indices_0, x = var_635_shape_cast_fp16)[name = tensor<string, []>("gather_103")];
            tensor<int32, [2]> var_638 = const()[name = tensor<string, []>("op_638"), val = tensor<int32, [2]>([-1, 3072])];
            tensor<fp16, [?, 3072]> var_639_cast_fp16 = reshape(shape = var_638, x = x_77_cast_fp16)[name = tensor<string, []>("op_639_cast_fp16")];
            tensor<fp16, [768, 3072]> transpose_19_cast_fp16_to_fp32_to_fp16_palettized = constexpr_lut_to_dense()[indices = tensor<uint8, [589824]>(BLOBFILE(path = tensor<string, []>("@model_path/weights/weight.bin"), offset = tensor<uint64, []>(18205696))), lut = tensor<fp16, [4]>([-0x1.198p-3, -0x1.39p-5, 0x1.5fp-5, 0x1.254p-3]), name = tensor<string, []>("transpose_19_cast_fp16_to_fp32_to_fp16_palettized"), shape = tensor<uint32, [2]>([768, 3072])];
            tensor<fp16, [768]> x_79_bias_0_to_fp16 = const()[name = tensor<string, []>("x_79_bias_0_to_fp16"), val = tensor<fp16, [768]>(BLOBFILE(path = tensor<string, []>("@model_path/weights/weight.bin"), offset = tensor<uint64, []>(18795584)))];
            tensor<fp16, [?, 768]> x_79_cast_fp16 = linear(bias = x_79_bias_0_to_fp16, weight = transpose_19_cast_fp16_to_fp32_to_fp16_palettized, x = var_639_cast_fp16)[name = tensor<string, []>("x_79_cast_fp16")];
            tensor<int32, []> concat_48_axis_0 = const()[name = tensor<string, []>("concat_48_axis_0"), val = tensor<int32, []>(0)];
            tensor<bool, []> concat_48_interleave_0 = const()[name = tensor<string, []>("concat_48_interleave_0"), val = tensor<bool, []>(false)];
            tensor<int32, [3]> concat_48 = concat(axis = concat_48_axis_0, interleave = concat_48_interleave_0, values = (gather_102, gather_103, var_6))[name = tensor<string, []>("concat_48")];
            tensor<fp16, [?, ?, 768]> input_51_cast_fp16 = reshape(shape = concat_48, x = x_79_cast_fp16)[name = tensor<string, []>("input_51_cast_fp16")];
            tensor<fp16, [?, ?, 768]> input_53_cast_fp16 = add(x = input_47_cast_fp16, y = input_51_cast_fp16)[name = tensor<string, []>("input_53_cast_fp16")];
            tensor<int32, [1]> x_81_axes_0 = const()[name = tensor<string, []>("x_81_axes_0"), val = tensor<int32, [1]>([-1])];
            tensor<fp16, [768]> transformer_h_5_ln_1_weight_to_fp16 = const()[name = tensor<string, []>("transformer_h_5_ln_1_weight_to_fp16"), val = tensor<fp16, [768]>(BLOBFILE(path = tensor<string, []>("@model_path/weights/weight.bin"), offset = tensor<uint64, []>(18797184)))];
            tensor<fp16, [768]> transformer_h_5_ln_1_bias_to_fp16 = const()[name = tensor<string, []>("transformer_h_5_ln_1_bias_to_fp16"), val = tensor<fp16, [768]>(BLOBFILE(path = tensor<string, []>("@model_path/weights/weight.bin"), offset = tensor<uint64, []>(18798784)))];
            tensor<fp16, [?, ?, 768]> x_81_cast_fp16 = layer_norm(axes = x_81_axes_0, beta = transformer_h_5_ln_1_bias_to_fp16, epsilon = var_5_to_fp16, gamma = transformer_h_5_ln_1_weight_to_fp16, x = input_53_cast_fp16)[name = tensor<string, []>("x_81_cast_fp16")];
            tensor<int32, [3]> var_661_shape_cast_fp16 = shape(x = x_81_cast_fp16)[name = tensor<string, []>("op_661_shape_cast_fp16")];
            tensor<int32, []> gather_105_indices_0 = const()[name = tensor<string, []>("gather_105_indices_0"), val = tensor<int32, []>(0)];
            tensor<int32, []> gather_105_axis_0 = const()[name = tensor<string, []>("gather_105_axis_0"), val = tensor<int32, []>(0)];
            tensor<int32, []> gather_105_batch_dims_0 = const()[name = tensor<string, []>("gather_105_batch_dims_0"), val = tensor<int32, []>(0)];
            tensor<int32, []> gather_105 = gather(axis = gather_105_axis_0, batch_dims = gather_105_batch_dims_0, indices = gather_105_indices_0, x = var_661_shape_cast_fp16)[name = tensor<string, []>("gather_105")];
            tensor<int32, []> gather_106_indices_0 = const()[name = tensor<string, []>("gather_106_indices_0"), val = tensor<int32, []>(1)];
            tensor<int32, []> gather_106_axis_0 = const()[name = tensor<string, []>("gather_106_axis_0"), val = tensor<int32, []>(0)];
            tensor<int32, []> gather_106_batch_dims_0 = const()[name = tensor<string, []>("gather_106_batch_dims_0"), val = tensor<int32, []>(0)];
            tensor<int32, []> gather_106 = gather(axis = gather_106_axis_0, batch_dims = gather_106_batch_dims_0, indices = gather_106_indices_0, x = var_661_shape_cast_fp16)[name = tensor<string, []>("gather_106")];
            tensor<int32, [2]> var_664 = const()[name = tensor<string, []>("op_664"), val = tensor<int32, [2]>([-1, 768])];
            tensor<fp16, [?, 768]> var_665_cast_fp16 = reshape(shape = var_664, x = x_81_cast_fp16)[name = tensor<string, []>("op_665_cast_fp16")];
            tensor<fp16, [2304, 768]> transpose_20_cast_fp16_to_fp32_to_fp16_palettized = constexpr_lut_to_dense()[indices = tensor<uint8, [442368]>(BLOBFILE(path = tensor<string, []>("@model_path/weights/weight.bin"), offset = tensor<uint64, []>(18800384))), lut = tensor<fp16, [4]>([-0x1.9e8p-3, -0x1.dc8p-5, 0x1.d94p-5, 0x1.9ep-3]), name = tensor<string, []>("transpose_20_cast_fp16_to_fp32_to_fp16_palettized"), shape = tensor<uint32, [2]>([2304, 768])];
            tensor<fp16, [2304]> x_83_bias_0_to_fp16 = const()[name = tensor<string, []>("x_83_bias_0_to_fp16"), val = tensor<fp16, [2304]>(BLOBFILE(path = tensor<string, []>("@model_path/weights/weight.bin"), offset = tensor<uint64, []>(19242816)))];
            tensor<fp16, [?, 2304]> x_83_cast_fp16 = linear(bias = x_83_bias_0_to_fp16, weight = transpose_20_cast_fp16_to_fp32_to_fp16_palettized, x = var_665_cast_fp16)[name = tensor<string, []>("x_83_cast_fp16")];
            tensor<int32, []> concat_49_axis_0 = const()[name = tensor<string, []>("concat_49_axis_0"), val = tensor<int32, []>(0)];
            tensor<bool, []> concat_49_interleave_0 = const()[name = tensor<string, []>("concat_49_interleave_0"), val = tensor<bool, []>(false)];
            tensor<int32, [3]> concat_49 = concat(axis = concat_49_axis_0, interleave = concat_49_interleave_0, values = (gather_105, gather_106, var_9))[name = tensor<string, []>("concat_49")];
            tensor<fp16, [?, ?, 2304]> var_668_cast_fp16 = reshape(shape = concat_49, x = x_83_cast_fp16)[name = tensor<string, []>("op_668_cast_fp16")];
            tensor<int32, [3]> tile_5 = const()[name = tensor<string, []>("tile_5"), val = tensor<int32, [3]>([768, 768, 768])];
            tensor<int32, []> var_669_axis_0 = const()[name = tensor<string, []>("op_669_axis_0"), val = tensor<int32, []>(2)];
            tensor<fp16, [?, ?, 768]> var_669_cast_fp16_0, tensor<fp16, [?, ?, 768]> var_669_cast_fp16_1, tensor<fp16, [?, ?, 768]> var_669_cast_fp16_2 = split(axis = var_669_axis_0, split_sizes = tile_5, x = var_668_cast_fp16)[name = tensor<string, []>("op_669_cast_fp16")];
            tensor<int32, [3]> var_673_shape_cast_fp16 = shape(x = var_669_cast_fp16_0)[name = tensor<string, []>("op_673_shape_cast_fp16")];
            tensor<int32, []> gather_109_indices_0 = const()[name = tensor<string, []>("gather_109_indices_0"), val = tensor<int32, []>(0)];
…
            tensor<int32, []> concat_62_axis_0 = const()[name = tensor<string, []>("concat_62_axis_0"), val = tensor<int32, []>(0)];
            tensor<bool, []> concat_62_interleave_0 = const()[name = tensor<string, []>("concat_62_interleave_0"), val = tensor<bool, []>(false)];
            tensor<int32, [4]> concat_62 = concat(axis = concat_62_axis_0, interleave = concat_62_interleave_0, values = (concat_62_values0_0, concat_62_values1_0, concat_62_values2_0, gather_133))[name = tensor<string, []>("concat_62")];
            tensor<int32, [4]> causal_mask_13_begin_0 = const()[name = tensor<string, []>("causal_mask_13_begin_0"), val = tensor<int32, [4]>([0, 0, 0, 0])];
            tensor<bool, [4]> causal_mask_13_end_mask_0 = const()[name = tensor<string, []>("causal_mask_13_end_mask_0"), val = tensor<bool, [4]>([true, true, true, false])];
            tensor<fp16, [?, ?, ?, ?]> causal_mask_13_cast_fp16 = slice_by_index(begin = causal_mask_13_begin_0, end = concat_62, end_mask = causal_mask_13_end_mask_0, x = attention_mask_cast_fp16)[name = tensor<string, []>("causal_mask_13_cast_fp16")];
            tensor<fp16, []> mul_20_y_0_to_fp16 = const()[name = tensor<string, []>("mul_20_y_0_to_fp16"), val = tensor<fp16, []>(0x1p-3)];
            tensor<fp16, [?, 12, ?, 64]> query_25_cast_fp16 = transpose(perm = query_25_perm_0, x = var_791_cast_fp16)[name = tensor<string, []>("transpose_6")];
            tensor<fp16, [?, 12, ?, 64]> mul_20_cast_fp16 = mul(x = query_25_cast_fp16, y = mul_20_y_0_to_fp16)[name = tensor<string, []>("mul_20_cast_fp16")];
            tensor<bool, []> matmul_31_transpose_y_0 = const()[name = tensor<string, []>("matmul_31_transpose_y_0"), val = tensor<bool, []>(true)];
            tensor<bool, []> matmul_31_transpose_x_0 = const()[name = tensor<string, []>("matmul_31_transpose_x_0"), val = tensor<bool, []>(false)];
            tensor<fp16, [?, 12, ?, ?]> matmul_31_cast_fp16 = matmul(transpose_x = matmul_31_transpose_x_0, transpose_y = matmul_31_transpose_y_0, x = mul_20_cast_fp16, y = key_25_cast_fp16)[name = tensor<string, []>("matmul_31_cast_fp16")];
            tensor<fp16, [?, 12, ?, ?]> add_6_cast_fp16 = add(x = matmul_31_cast_fp16, y = causal_mask_13_cast_fp16)[name = tensor<string, []>("add_6_cast_fp16")];
            tensor<int32, []> softmax_6_axis_0 = const()[name = tensor<string, []>("softmax_6_axis_0"), val = tensor<int32, []>(-1)];
            tensor<fp16, [?, 12, ?, ?]> softmax_6_cast_fp16 = softmax(axis = softmax_6_axis_0, x = add_6_cast_fp16)[name = tensor<string, []>("softmax_6_cast_fp16")];
            tensor<bool, []> attn_output_37_transpose_x_0 = const()[name = tensor<string, []>("attn_output_37_transpose_x_0"), val = tensor<bool, []>(false)];
            tensor<bool, []> attn_output_37_transpose_y_0 = const()[name = tensor<string, []>("attn_output_37_transpose_y_0"), val = tensor<bool, []>(false)];
            tensor<fp16, [?, 12, ?, 64]> value_25_cast_fp16 = transpose(perm = value_25_perm_0, x = var_797_cast_fp16)[name = tensor<string, []>("transpose_5")];
            tensor<fp16, [?, 12, ?, 64]> attn_output_37_cast_fp16 = matmul(transpose_x = attn_output_37_transpose_x_0, transpose_y = attn_output_37_transpose_y_0, x = softmax_6_cast_fp16, y = value_25_cast_fp16)[name = tensor<string, []>("attn_output_37_cast_fp16")];
            tensor<int32, [4]> var_808_perm_0 = const()[name = tensor<string, []>("op_808_perm_0"), val = tensor<int32, [4]>([0, 2, 1, 3])];
            tensor<fp16, [?, ?, 12, 64]> var_808_cast_fp16 = transpose(perm = var_808_perm_0, x = attn_output_37_cast_fp16)[name = tensor<string, []>("transpose_4")];
            tensor<int32, [4]> var_810_shape_cast_fp16 = shape(x = var_808_cast_fp16)[name = tensor<string, []>("op_810_shape_cast_fp16")];
            tensor<int32, []> gather_134_indices_0 = const()[name = tensor<string, []>("gather_134_indices_0"), val = tensor<int32, []>(0)];
            tensor<int32, []> gather_134_axis_0 = const()[name = tensor<string, []>("gather_134_axis_0"), val = tensor<int32, []>(0)];
            tensor<int32, []> gather_134_batch_dims_0 = const()[name = tensor<string, []>("gather_134_batch_dims_0"), val = tensor<int32, []>(0)];
            tensor<int32, []> gather_134 = gather(axis = gather_134_axis_0, batch_dims = gather_134_batch_dims_0, indices = gather_134_indices_0, x = var_810_shape_cast_fp16)[name = tensor<string, []>("gather_134")];
            tensor<int32, []> gather_135_indices_0 = const()[name = tensor<string, []>("gather_135_indices_0"), val = tensor<int32, []>(1)];
            tensor<int32, []> gather_135_axis_0 = const()[name = tensor<string, []>("gather_135_axis_0"), val = tensor<int32, []>(0)];
            tensor<int32, []> gather_135_batch_dims_0 = const()[name = tensor<string, []>("gather_135_batch_dims_0"), val = tensor<int32, []>(0)];
            tensor<int32, []> gather_135 = gather(axis = gather_135_axis_0, batch_dims = gather_135_batch_dims_0, indices = gather_135_indices_0, x = var_810_shape_cast_fp16)[name = tensor<string, []>("gather_135")];
            tensor<int32, []> concat_63_axis_0 = const()[name = tensor<string, []>("concat_63_axis_0"), val = tensor<int32, []>(0)];
            tensor<bool, []> concat_63_interleave_0 = const()[name = tensor<string, []>("concat_63_interleave_0"), val = tensor<bool, []>(false)];
            tensor<int32, [3]> concat_63 = concat(axis = concat_63_axis_0, interleave = concat_63_interleave_0, values = (gather_134, gather_135, var_23))[name = tensor<string, []>("concat_63")];
            tensor<fp16, [?, ?, 768]> var_813_cast_fp16 = reshape(shape = concat_63, x = var_808_cast_fp16)[name = tensor<string, []>("op_813_cast_fp16")];
            tensor<int32, [3]> var_817_shape_cast_fp16 = shape(x = var_813_cast_fp16)[name = tensor<string, []>("op_817_shape_cast_fp16")];
            tensor<int32, []> gather_136_indices_0 = const()[name = tensor<string, []>("gather_136_indices_0"), val = tensor<int32, []>(0)];
            tensor<int32, []> gather_136_axis_0 = const()[name = tensor<string, []>("gather_136_axis_0"), val = tensor<int32, []>(0)];
            tensor<int32, []> gather_136_batch_dims_0 = const()[name = tensor<string, []>("gather_136_batch_dims_0"), val = tensor<int32, []>(0)];
            tensor<int32, []> gather_136 = gather(axis = gather_136_axis_0, batch_dims = gather_136_batch_dims_0, indices = gather_136_indices_0, x = var_817_shape_cast_fp16)[name = tensor<string, []>("gather_136")];
            tensor<int32, []> gather_137_indices_0 = const()[name = tensor<string, []>("gather_137_indices_0"), val = tensor<int32, []>(1)];
            tensor<int32, []> gather_137_axis_0 = const()[name = tensor<string, []>("gather_137_axis_0"), val = tensor<int32, []>(0)];
            tensor<int32, []> gather_137_batch_dims_0 = const()[name = tensor<string, []>("gather_137_batch_dims_0"), val = tensor<int32, []>(0)];
            tensor<int32, []> gather_137 = gather(axis = gather_137_axis_0, batch_dims = gather_137_batch_dims_0, indices = gather_137_indices_0, x = var_817_shape_cast_fp16)[name = tensor<string, []>("gather_137")];
            tensor<int32, [2]> var_820 = const()[name = tensor<string, []>("op_820"), val = tensor<int32, [2]>([-1, 768])];
            tensor<fp16, [?, 768]> var_821_cast_fp16 = reshape(shape = var_820, x = var_813_cast_fp16)[name = tensor<string, []>("op_821_cast_fp16")];
            tensor<fp16, [768, 768]> transpose_25_cast_fp16_to_fp32_to_fp16_palettized = constexpr_lut_to_dense()[indices = tensor<uint8, [147456]>(BLOBFILE(path = tensor<string, []>("@model_path/weights/weight.bin"), offset = tensor<uint64, []>(21037696))), lut = tensor<fp16, [4]>([-0x1.6d8p-3, -0x1.a44p-5, 0x1.a14p-5, 0x1.6dp-3]), name = tensor<string, []>("transpose_25_cast_fp16_to_fp32_to_fp16_palettized"), shape = tensor<uint32, [2]>([768, 768])];
            tensor<fp16, [768]> x_103_bias_0_to_fp16 = const()[name = tensor<string, []>("x_103_bias_0_to_fp16"), val = tensor<fp16, [768]>(BLOBFILE(path = tensor<string, []>("@model_path/weights/weight.bin"), offset = tensor<uint64, []>(21185216)))];
            tensor<fp16, [?, 768]> x_103_cast_fp16 = linear(bias = x_103_bias_0_to_fp16, weight = transpose_25_cast_fp16_to_fp32_to_fp16_palettized, x = var_821_cast_fp16)[name = tensor<string, []>("x_103_cast_fp16")];
            tensor<int32, []> concat_64_axis_0 = const()[name = tensor<string, []>("concat_64_axis_0"), val = tensor<int32, []>(0)];
            tensor<bool, []> concat_64_interleave_0 = const()[name = tensor<string, []>("concat_64_interleave_0"), val = tensor<bool, []>(false)];
            tensor<int32, [3]> concat_64 = concat(axis = concat_64_axis_0, interleave = concat_64_interleave_0, values = (gather_136, gather_137, var_6))[name = tensor<string, []>("concat_64")];
            tensor<fp16, [?, ?, 768]> input_65_cast_fp16 = reshape(shape = concat_64, x = x_103_cast_fp16)[name = tensor<string, []>("input_65_cast_fp16")];
            tensor<fp16, [?, ?, 768]> input_67_cast_fp16 = add(x = input_65_cast_fp16, y = input_63_cast_fp16)[name = tensor<string, []>("input_67_cast_fp16")];
            tensor<int32, [1]> x_105_axes_0 = const()[name = tensor<string, []>("x_105_axes_0"), val = tensor<int32, [1]>([-1])];
            tensor<fp16, [768]> transformer_h_6_ln_2_weight_to_fp16 = const()[name = tensor<string, []>("transformer_h_6_ln_2_weight_to_fp16"), val = tensor<fp16, [768]>(BLOBFILE(path = tensor<string, []>("@model_path/weights/weight.bin"), offset = tensor<uint64, []>(21186816)))];
            tensor<fp16, [768]> transformer_h_6_ln_2_bias_to_fp16 = const()[name = tensor<string, []>("transformer_h_6_ln_2_bias_to_fp16"), val = tensor<fp16, [768]>(BLOBFILE(path = tensor<string, []>("@model_path/weights/weight.bin"), offset = tensor<uint64, []>(21188416)))];
            tensor<fp16, [?, ?, 768]> x_105_cast_fp16 = layer_norm(axes = x_105_axes_0, beta = transformer_h_6_ln_2_bias_to_fp16, epsilon = var_5_to_fp16, gamma = transformer_h_6_ln_2_weight_to_fp16, x = input_67_cast_fp16)[name = tensor<string, []>("x_105_cast_fp16")];
            tensor<int32, [3]> var_839_shape_cast_fp16 = shape(x = x_105_cast_fp16)[name = tensor<string, []>("op_839_shape_cast_fp16")];
            tensor<int32, []> gather_139_indices_0 = const()[name = tensor<string, []>("gather_139_indices_0"), val = tensor<int32, []>(0)];
            tensor<int32, []> gather_139_axis_0 = const()[name = tensor<string, []>("gather_139_axis_0"), val = tensor<int32, []>(0)];
            tensor<int32, []> gather_139_batch_dims_0 = const()[name = tensor<string, []>("gather_139_batch_dims_0"), val = tensor<int32, []>(0)];
            tensor<int32, []> gather_139 = gather(axis = gather_139_axis_0, batch_dims = gather_139_batch_dims_0, indices = gather_139_indices_0, x = var_839_shape_cast_fp16)[name = tensor<string, []>("gather_139")];
            tensor<int32, []> gather_140_indices_0 = const()[name = tensor<string, []>("gather_140_indices_0"), val = tensor<int32, []>(1)];
            tensor<int32, []> gather_140_axis_0 = const()[name = tensor<string, []>("gather_140_axis_0"), val = tensor<int32, []>(0)];
            tensor<int32, []> gather_140_batch_dims_0 = const()[name = tensor<string, []>("gather_140_batch_dims_0"), val = tensor<int32, []>(0)];
            tensor<int32, []> gather_140 = gather(axis = gather_140_axis_0, batch_dims = gather_140_batch_dims_0, indices = gather_140_indices_0, x = var_839_shape_cast_fp16)[name = tensor<string, []>("gather_140")];
            tensor<int32, [2]> var_842 = const()[name = tensor<string, []>("op_842"), val = tensor<int32, [2]>([-1, 768])];
            tensor<fp16, [?, 768]> var_843_cast_fp16 = reshape(shape = var_842, x = x_105_cast_fp16)[name = tensor<string, []>("op_843_cast_fp16")];
            tensor<fp16, [3072, 768]> transpose_26_cast_fp16_to_fp32_to_fp16_palettized = constexpr_lut_to_dense()[indices = tensor<uint8, [589824]>(BLOBFILE(path = tensor<string, []>("@model_path/weights/weight.bin"), offset = tensor<uint64, []>(21190016))), lut = tensor<fp16, [4]>([-0x1.978p-3, -0x1.f0cp-5, 0x1.bbcp-5, 0x1.89p-3]), name = tensor<string, []>("transpose_26_cast_fp16_to_fp32_to_fp16_palettized"), shape = tensor<uint32, [2]>([3072, 768])];
            tensor<fp16, [3072]> x_107_bias_0_to_fp16 = const()[name = tensor<string, []>("x_107_bias_0_to_fp16"), val = tensor<fp16, [3072]>(BLOBFILE(path = tensor<string, []>("@model_path/weights/weight.bin"), offset = tensor<uint64, []>(21779904)))];
            tensor<fp16, [?, 3072]> x_107_cast_fp16 = linear(bias = x_107_bias_0_to_fp16, weight = transpose_26_cast_fp16_to_fp32_to_fp16_palettized, x = var_843_cast_fp16)[name = tensor<string, []>("x_107_cast_fp16")];
            tensor<int32, []> concat_65_axis_0 = const()[name = tensor<string, []>("concat_65_axis_0"), val = tensor<int32, []>(0)];
            tensor<bool, []> concat_65_interleave_0 = const()[name = tensor<string, []>("concat_65_interleave_0"), val = tensor<bool, []>(false)];
            tensor<int32, [3]> concat_65 = concat(axis = concat_65_axis_0, interleave = concat_65_interleave_0, values = (gather_139, gather_140, var_11))[name = tensor<string, []>("concat_65")];
            tensor<fp16, [?, ?, 3072]> input_69_cast_fp16 = reshape(shape = concat_65, x = x_107_cast_fp16)[name = tensor<string, []>("input_69_cast_fp16")];
            tensor<string, []> x_109_mode_0 = const()[name = tensor<string, []>("x_109_mode_0"), val = tensor<string, []>("TANH_APPROXIMATION")];
            tensor<fp16, [?, ?, 3072]> x_109_cast_fp16 = gelu(mode = x_109_mode_0, x = input_69_cast_fp16)[name = tensor<string, []>("x_109_cast_fp16")];
            tensor<int32, [3]> var_861_shape_cast_fp16 = shape(x = x_109_cast_fp16)[name = tensor<string, []>("op_861_shape_cast_fp16")];
            tensor<int32, []> gather_142_indices_0 = const()[name = tensor<string, []>("gather_142_indices_0"), val = tensor<int32, []>(0)];
            tensor<int32, []> gather_142_axis_0 = const()[name = tensor<string, []>("gather_142_axis_0"), val = tensor<int32, []>(0)];
            tensor<int32, []> gather_142_batch_dims_0 = const()[name = tensor<string, []>("gather_142_batch_dims_0"), val = tensor<int32, []>(0)];
            tensor<int32, []> gather_142 = gather(axis = gather_142_axis_0, batch_dims = gather_142_batch_dims_0, indices = gather_142_indices_0, x = var_861_shape_cast_fp16)[name = tensor<string, []>("gather_142")];
            tensor<int32, []> gather_143_indices_0 = const()[name = tensor<string, []>("gather_143_indices_0"), val = tensor<int32, []>(1)];
            tensor<int32, []> gather_143_axis_0 = const()[name = tensor<string, []>("gather_143_axis_0"), val = tensor<int32, []>(0)];
            tensor<int32, []> gather_143_batch_dims_0 = const()[name = tensor<string, []>("gather_143_batch_dims_0"), val = tensor<int32, []>(0)];
            tensor<int32, []> gather_143 = gather(axis = gather_143_axis_0, batch_dims = gather_143_batch_dims_0, indices = gather_143_indices_0, x = var_861_shape_cast_fp16)[name = tensor<string, []>("gather_143")];
            tensor<int32, [2]> var_864 = const()[name = tensor<string, []>("op_864"), val = tensor<int32, [2]>([-1, 3072])];
            tensor<fp16, [?, 3072]> var_865_cast_fp16 = reshape(shape = var_864, x = x_109_cast_fp16)[name = tensor<string, []>("op_865_cast_fp16")];
            tensor<fp16, [768, 3072]> transpose_27_cast_fp16_to_fp32_to_fp16_palettized = constexpr_lut_to_dense()[indices = tensor<uint8, [589824]>(BLOBFILE(path = tensor<string, []>("@model_path/weights/weight.bin"), offset = tensor<uint64, []>(21786112))), lut = tensor<fp16, [4]>([-0x1.514p-3, -0x1.7ep-5, 0x1.984p-5, 0x1.58cp-3]), name = tensor<string, []>("transpose_27_cast_fp16_to_fp32_to_fp16_palettized"), shape = tensor<uint32, [2]>([768, 3072])];
            tensor<fp16, [768]> x_111_bias_0_to_fp16 = const()[name = tensor<string, []>("x_111_bias_0_to_fp16"), val = tensor<fp16, [768]>(BLOBFILE(path = tensor<string, []>("@model_path/weights/weight.bin"), offset = tensor<uint64, []>(22376000)))];
            tensor<fp16, [?, 768]> x_111_cast_fp16 = linear(bias = x_111_bias_0_to_fp16, weight = transpose_27_cast_fp16_to_fp32_to_fp16_palettized, x = var_865_cast_fp16)[name = tensor<string, []>("x_111_cast_fp16")];
            tensor<int32, []> concat_66_axis_0 = const()[name = tensor<string, []>("concat_66_axis_0"), val = tensor<int32, []>(0)];
            tensor<bool, []> concat_66_interleave_0 = const()[name = tensor<string, []>("concat_66_interleave_0"), val = tensor<bool, []>(false)];
            tensor<int32, [3]> concat_66 = concat(axis = concat_66_axis_0, interleave = concat_66_interleave_0, values = (gather_142, gather_143, var_6))[name = tensor<string, []>("concat_66")];
            tensor<fp16, [?, ?, 768]> input_71_cast_fp16 = reshape(shape = concat_66, x = x_111_cast_fp16)[name = tensor<string, []>("input_71_cast_fp16")];
            tensor<fp16, [?, ?, 768]> input_73_cast_fp16 = add(x = input_67_cast_fp16, y = input_71_cast_fp16)[name = tensor<string, []>("input_73_cast_fp16")];
            tensor<int32, [1]> x_113_axes_0 = const()[name = tensor<string, []>("x_113_axes_0"), val = tensor<int32, [1]>([-1])];
            tensor<fp16, [768]> transformer_h_7_ln_1_weight_to_fp16 = const()[name = tensor<string, []>("transformer_h_7_ln_1_weight_to_fp16"), val = tensor<fp16, [768]>(BLOBFILE(path = tensor<string, []>("@model_path/weights/weight.bin"), offset = tensor<uint64, []>(22377600)))];
            tensor<fp16, [768]> transformer_h_7_ln_1_bias_to_fp16 = const()[name = tensor<string, []>("transformer_h_7_ln_1_bias_to_fp16"), val = tensor<fp16, [768]>(BLOBFILE(path = tensor<string, []>("@model_path/weights/weight.bin"), offset = tensor<uint64, []>(22379200)))];
            tensor<fp16, [?, ?, 768]> x_113_cast_fp16 = layer_norm(axes = x_113_axes_0, beta = transformer_h_7_ln_1_bias_to_fp16, epsilon = var_5_to_fp16, gamma = transformer_h_7_ln_1_weight_to_fp16, x = input_73_cast_fp16)[name = tensor<string, []>("x_113_cast_fp16")];
            tensor<int32, [3]> var_887_shape_cast_fp16 = shape(x = x_113_cast_fp16)[name = tensor<string, []>("op_887_shape_cast_fp16")];
            tensor<int32, []> gather_145_indices_0 = const()[name = tensor<string, []>("gather_145_indices_0"), val = tensor<int32, []>(0)];
            tensor<int32, []> gather_145_axis_0 = const()[name = tensor<string, []>("gather_145_axis_0"), val = tensor<int32, []>(0)];
            tensor<int32, []> gather_145_batch_dims_0 = const()[name = tensor<string, []>("gather_145_batch_dims_0"), val = tensor<int32, []>(0)];
            tensor<int32, []> gather_145 = gather(axis = gather_145_axis_0, batch_dims = gather_145_batch_dims_0, indices = gather_145_indices_0, x = var_887_shape_cast_fp16)[name = tensor<string, []>("gather_145")];
            tensor<int32, []> gather_146_indices_0 = const()[name = tensor<string, []>("gather_146_indices_0"), val = tensor<int32, []>(1)];
            tensor<int32, []> gather_146_axis_0 = const()[name = tensor<string, []>("gather_146_axis_0"), val = tensor<int32, []>(0)];
            tensor<int32, []> gather_146_batch_dims_0 = const()[name = tensor<string, []>("gather_146_batch_dims_0"), val = tensor<int32, []>(0)];
            tensor<int32, []> gather_146 = gather(axis = gather_146_axis_0, batch_dims = gather_146_batch_dims_0, indices = gather_146_indices_0, x = var_887_shape_cast_fp16)[name = tensor<string, []>("gather_146")];
            tensor<int32, [2]> var_890 = const()[name = tensor<string, []>("op_890"), val = tensor<int32, [2]>([-1, 768])];
            tensor<fp16, [?, 768]> var_891_cast_fp16 = reshape(shape = var_890, x = x_113_cast_fp16)[name = tensor<string, []>("op_891_cast_fp16")];
            tensor<fp16, [2304, 768]> transpose_28_cast_fp16_to_fp32_to_fp16_palettized = constexpr_lut_to_dense()[indices = tensor<uint8, [442368]>(BLOBFILE(path = tensor<string, []>("@model_path/weights/weight.bin"), offset = tensor<uint64, []>(22380800))), lut = tensor<fp16, [4]>([-0x1.994p-3, -0x1.dep-5, 0x1.dd8p-5, 0x1.994p-3]), name = tensor<string, []>("transpose_28_cast_fp16_to_fp32_to_fp16_palettized"), shape = tensor<uint32, [2]>([2304, 768])];
            tensor<fp16, [2304]> x_115_bias_0_to_fp16 = const()[name = tensor<string, []>("x_115_bias_0_to_fp16"), val = tensor<fp16, [2304]>(BLOBFILE(path = tensor<string, []>("@model_path/weights/weight.bin"), offset = tensor<uint64, []>(22823232)))];
            tensor<fp16, [?, 2304]> x_115_cast_fp16 = linear(bias = x_115_bias_0_to_fp16, weight = transpose_28_cast_fp16_to_fp32_to_fp16_palettized, x = var_891_cast_fp16)[name = tensor<string, []>("x_115_cast_fp16")];
            tensor<int32, []> concat_67_axis_0 = const()[name = tensor<string, []>("concat_67_axis_0"), val = tensor<int32, []>(0)];
            tensor<bool, []> concat_67_interleave_0 = const()[name = tensor<string, []>("concat_67_interleave_0"), val = tensor<bool, []>(false)];
            tensor<int32, [3]> concat_67 = concat(axis = concat_67_axis_0, interleave = concat_67_interleave_0, values = (gather_145, gather_146, var_9))[name = tensor<string, []>("concat_67")];
            tensor<fp16, [?, ?, 2304]> var_894_cast_fp16 = reshape(shape = concat_67, x = x_115_cast_fp16)[name = tensor<string, []>("op_894_cast_fp16")];
            tensor<int32, [3]> tile_7 = const()[name = tensor<string, []>("tile_7"), val = tensor<int32, [3]>([768, 768, 768])];
            tensor<int32, []> var_895_axis_0 = const()[name = tensor<string, []>("op_895_axis_0"), val = tensor<int32, []>(2)];
            tensor<fp16, [?, ?, 768]> var_895_cast_fp16_0, tensor<fp16, [?, ?, 768]> var_895_cast_fp16_1, tensor<fp16, [?, ?, 768]> var_895_cast_fp16_2 = split(axis = var_895_axis_0, split_sizes = tile_7, x = var_894_cast_fp16)[name = tensor<string, []>("op_895_cast_fp16")];
            tensor<int32, [3]> var_899_shape_cast_fp16 = shape(x = var_895_cast_fp16_0)[name = tensor<string, []>("op_899_shape_cast_fp16")];
            tensor<int32, []> gather_149_indices_0 = const()[name = tensor<string, []>("gather_149_indices_0"), val = tensor<int32, []>(0)];
            tensor<int32, []> gather_149_axis_0 = const()[name = tensor<string, []>("gather_149_axis_0"), val = tensor<int32, []>(0)];
            tensor<int32, []> gather_149_batch_dims_0 = const()[name = tensor<string, []>("gather_149_batch_dims_0"), val = tensor<int32, []>(0)];
            tensor<int32, []> gather_149 = gather(axis = gather_149_axis_0, batch_dims = gather_149_batch_dims_0, indices = gather_149_indices_0, x = var_899_shape_cast_fp16)[name = tensor<string, []>("gather_149")];
            tensor<int32, []> gather_150_indices_0 = const()[name = tensor<string, []>("gather_150_indices_0"), val = tensor<int32, []>(1)];
            tensor<int32, []> gather_150_axis_0 = const()[name = tensor<string, []>("gather_150_axis_0"), val = tensor<int32, []>(0)];
            tensor<int32, []> gather_150_batch_dims_0 = const()[name = tensor<string, []>("gather_150_batch_dims_0"), val = tensor<int32, []>(0)];
            tensor<int32, []> gather_150 = gather(axis = gather_150_axis_0, batch_dims = gather_150_batch_dims_0, indices = gather_150_indices_0, x = var_899_shape_cast_fp16)[name = tensor<string, []>("gather_150")];
            tensor<int32, [3]> var_901_shape_cast_fp16 = shape(x = var_895_cast_fp16_1)[name = tensor<string, []>("op_901_shape_cast_fp16")];
            tensor<int32, []> gather_151_indices_0 = const()[name = tensor<string, []>("gather_151_indices_0"), val = tensor<int32, []>(0)];
            tensor<int32, []> gather_151_axis_0 = const()[name = tensor<string, []>("gather_151_axis_0"), val = tensor<int32, []>(0)];
            tensor<int32, []> gather_151_batch_dims_0 = const()[name = tensor<string, []>("gather_151_batch_dims_0"), val = tensor<int32, []>(0)];
            tensor<int32, []> gather_151 = gather(axis = gather_151_axis_0, batch_dims = gather_151_batch_dims_0, indices = gather_151_indices_0, x = var_901_shape_cast_fp16)[name = tensor<string, []>("gather_151")];
            tensor<int32, [3]> var_902_shape_cast_fp16 = shape(x = var_895_cast_fp16_1)[name = tensor<string, []>("op_902_shape_cast_fp16")];
            tensor<int32, []> gather_152_indices_0 = const()[name = tensor<string, []>("gather_152_indices_0"), val = tensor<int32, []>(1)];
            tensor<int32, []> gather_152_axis_0 = const()[name = tensor<string, []>("gather_152_axis_0"), val = tensor<int32, []>(0)];
            tensor<int32, []> gather_152_batch_dims_0 = const()[name = tensor<string, []>("gather_152_batch_dims_0"), val = tensor<int32, []>(0)];
            tensor<int32, []> gather_152 = gather(axis = gather_152_axis_0, batch_dims = gather_152_batch_dims_0, indices = gather_152_indices_0, x = var_902_shape_cast_fp16)[name = tensor<string, []>("gather_152")];
            tensor<int32, []> concat_68_axis_0 = const()[name = tensor<string, []>("concat_68_axis_0"), val = tensor<int32, []>(0)];
            tensor<bool, []> concat_68_interleave_0 = const()[name = tensor<string, []>("concat_68_interleave_0"), val = tensor<bool, []>(false)];
            tensor<int32, [4]> concat_68 = concat(axis = concat_68_axis_0, interleave = concat_68_interleave_0, values = (gather_149, gather_150, var_23, var_8))[name = tensor<string, []>("concat_68")];
            tensor<fp16, [?, ?, 12, 64]> var_904_cast_fp16 = reshape(shape = concat_68, x = var_895_cast_fp16_0)[name = tensor<string, []>("op_904_cast_fp16")];
            tensor<int32, [4]> query_29_perm_0 = const()[name = tensor<string, []>("query_29_perm_0"), val = tensor<int32, [4]>([0, 2, 1, 3])];
            tensor<int32, []> concat_69_axis_0 = const()[name = tensor<string, []>("concat_69_axis_0"), val = tensor<int32, []>(0)];
            tensor<bool, []> concat_69_interleave_0 = const()[name = tensor<string, []>("concat_69_interleave_0"), val = tensor<bool, []>(false)];
            tensor<int32, [4]> concat_69 = concat(axis = concat_69_axis_0, interleave = concat_69_interleave_0, values = (gather_151, gather_152, var_23, var_8))[name = tensor<string, []>("concat_69")];
            tensor<fp16, [?, ?, 12, 64]> var_907_cast_fp16 = reshape(shape = concat_69, x = var_895_cast_fp16_1)[name = tensor<string, []>("op_907_cast_fp16")];
            tensor<int32, [4]> key_29_perm_0 = const()[name = tensor<string, []>("key_29_perm_0"), val = tensor<int32, [4]>([0, 2, -3, -1])];
            tensor<string, []> key_29_cast_fp16_to_fp32_dtype_0 = const()[name = tensor<string, []>("key_29_cast_fp16_to_fp32_dtype_0"), val = tensor<string, []>("fp32")];
            tensor<fp16, [?, ?, 12, 64]> var_910_cast_fp16 = reshape(shape = concat_69, x = var_895_cast_fp16_2)[name = tensor<string, []>("op_910_cast_fp16")];
            tensor<int32, [4]> value_29_perm_0 = const()[name = tensor<string, []>("value_29_perm_0"), val = tensor<int32, [4]>([0, 2, -3, -1])];
            tensor<string, []> value_29_cast_fp16_to_fp32_dtype_0 = const()[name = tensor<string, []>("value_29_cast_fp16_to_fp32_dtype_0"), val = tensor<string, []>("fp32")];
            tensor<fp16, [?, 12, ?, 64]> key_29_cast_fp16 = transpose(perm = key_29_perm_0, x = var_907_cast_fp16)[name = tensor<string, []>("transpose_3")];
            tensor<int32, [4]> var_912_shape_cast_fp16 = shape(x = key_29_cast_fp16)[name = tensor<string, []>("op_912_shape_cast_fp16")];
            tensor<int32, []> gather_153_indices_0 = const()[name = tensor<string, []>("gather_153_indices_0"), val = tensor<int32, []>(2)];
            tensor<int32, []> gather_153_axis_0 = const()[name = tensor<string, []>("gather_153_axis_0"), val = tensor<int32, []>(0)];
            tensor<int32, []> gather_153_batch_dims_0 = const()[name = tensor<string, []>("gather_153_batch_dims_0"), val = tensor<int32, []>(0)];
            tensor<int32, []> gather_153 = gather(axis = gather_153_axis_0, batch_dims = gather_153_batch_dims_0, indices = gather_153_indices_0, x = var_912_shape_cast_fp16)[name = tensor<string, []>("gather_153")];
            tensor<int32, []> concat_71_values0_0 = const()[name = tensor<string, []>("concat_71_values0_0"), val = tensor<int32, []>(0)];
            tensor<int32, []> concat_71_values1_0 = const()[name = tensor<string, []>("concat_71_values1_0"), val = tensor<int32, []>(0)];
            tensor<int32, []> concat_71_values2_0 = const()[name = tensor<string, []>("concat_71_values2_0"), val = tensor<int32, []>(0)];
            tensor<int32, []> concat_71_axis_0 = const()[name = tensor<string, []>("concat_71_axis_0"), val = tensor<int32, []>(0)];
            tensor<bool, []> concat_71_interleave_0 = const()[name = tensor<string, []>("concat_71_interleave_0"), val = tensor<bool, []>(false)];
            tensor<int32, [4]> concat_71 = concat(axis = concat_71_axis_0, interleave = concat_71_interleave_0, values = (concat_71_values0_0, concat_71_values1_0, concat_71_values2_0, gather_153))[name = tensor<string, []>("concat_71")];
            tensor<int32, [4]> causal_mask_begin_0 = const()[name = tensor<string, []>("causal_mask_begin_0"), val = tensor<int32, [4]>([0, 0, 0, 0])];
            tensor<bool, [4]> causal_mask_end_mask_0 = const()[name = tensor<string, []>("causal_mask_end_mask_0"), val = tensor<bool, [4]>([true, true, true, false])];
            tensor<fp16, [?, ?, ?, ?]> causal_mask_cast_fp16 = slice_by_index(begin = causal_mask_begin_0, end = concat_71, end_mask = causal_mask_end_mask_0, x = attention_mask_cast_fp16)[name = tensor<string, []>("causal_mask_cast_fp16")];
            tensor<fp16, []> mul_23_y_0_to_fp16 = const()[name = tensor<string, []>("mul_23_y_0_to_fp16"), val = tensor<fp16, []>(0x1p-3)];
            tensor<fp16, [?, 12, ?, 64]> query_29_cast_fp16 = transpose(perm = query_29_perm_0, x = var_904_cast_fp16)[name = tensor<string, []>("transpose_2")];
            tensor<fp16, [?, 12, ?, 64]> mul_23_cast_fp16 = mul(x = query_29_cast_fp16, y = mul_23_y_0_to_fp16)[name = tensor<string, []>("mul_23_cast_fp16")];
            tensor<bool, []> matmul_36_transpose_y_0 = const()[name = tensor<string, []>("matmul_36_transpose_y_0"), val = tensor<bool, []>(true)];
            tensor<bool, []> matmul_36_transpose_x_0 = const()[name = tensor<string, []>("matmul_36_transpose_x_0"), val = tensor<bool, []>(false)];
            tensor<fp16, [?, 12, ?, ?]> matmul_36_cast_fp16 = matmul(transpose_x = matmul_36_transpose_x_0, transpose_y = matmul_36_transpose_y_0, x = mul_23_cast_fp16, y = key_29_cast_fp16)[name = tensor<string, []>("matmul_36_cast_fp16")];
            tensor<fp16, [?, 12, ?, ?]> add_7_cast_fp16 = add(x = matmul_36_cast_fp16, y = causal_mask_cast_fp16)[name = tensor<string, []>("add_7_cast_fp16")];
            tensor<int32, []> softmax_7_axis_0 = const()[name = tensor<string, []>("softmax_7_axis_0"), val = tensor<int32, []>(-1)];
            tensor<fp16, [?, 12, ?, ?]> softmax_7_cast_fp16 = softmax(axis = softmax_7_axis_0, x = add_7_cast_fp16)[name = tensor<string, []>("softmax_7_cast_fp16")];
            tensor<bool, []> attn_output_43_transpose_x_0 = const()[name = tensor<string, []>("attn_output_43_transpose_x_0"), val = tensor<bool, []>(false)];
            tensor<bool, []> attn_output_43_transpose_y_0 = const()[name = tensor<string, []>("attn_output_43_transpose_y_0"), val = tensor<bool, []>(false)];
            tensor<fp16, [?, 12, ?, 64]> value_29_cast_fp16 = transpose(perm = value_29_perm_0, x = var_910_cast_fp16)[name = tensor<string, []>("transpose_1")];
            tensor<fp16, [?, 12, ?, 64]> attn_output_43_cast_fp16 = matmul(transpose_x = attn_output_43_transpose_x_0, transpose_y = attn_output_43_transpose_y_0, x = softmax_7_cast_fp16, y = value_29_cast_fp16)[name = tensor<string, []>("attn_output_43_cast_fp16")];
            tensor<int32, [4]> var_921_perm_0 = const()[name = tensor<string, []>("op_921_perm_0"), val = tensor<int32, [4]>([0, 2, 1, 3])];
            tensor<fp16, [?, ?, 12, 64]> var_921_cast_fp16 = transpose(perm = var_921_perm_0, x = attn_output_43_cast_fp16)[name = tensor<string, []>("transpose_0")];
            tensor<int32, [4]> var_923_shape_cast_fp16 = shape(x = var_921_cast_fp16)[name = tensor<string, []>("op_923_shape_cast_fp16")];
            tensor<int32, []> gather_154_indices_0 = const()[name = tensor<string, []>("gather_154_indices_0"), val = tensor<int32, []>(0)];
            tensor<int32, []> gather_154_axis_0 = const()[name = tensor<string, []>("gather_154_axis_0"), val = tensor<int32, []>(0)];
            tensor<int32, []> gather_154_batch_dims_0 = const()[name = tensor<string, []>("gather_154_batch_dims_0"), val = tensor<int32, []>(0)];
            tensor<int32, []> gather_154 = gather(axis = gather_154_axis_0, batch_dims = gather_154_batch_dims_0, indices = gather_154_indices_0, x = var_923_shape_cast_fp16)[name = tensor<string, []>("gather_154")];
            tensor<int32, []> gather_155_indices_0 = const()[name = tensor<string, []>("gather_155_indices_0"), val = tensor<int32, []>(1)];
            tensor<int32, []> gather_155_axis_0 = const()[name = tensor<string, []>("gather_155_axis_0"), val = tensor<int32, []>(0)];
            tensor<int32, []> gather_155_batch_dims_0 = const()[name = tensor<string, []>("gather_155_batch_dims_0"), val = tensor<int32, []>(0)];
            tensor<int32, []> gather_155 = gather(axis = gather_155_axis_0, batch_dims = gather_155_batch_dims_0, indices = gather_155_indices_0, x = var_923_shape_cast_fp16)[name = tensor<string, []>("gather_155")];
            tensor<int32, []> concat_72_axis_0 = const()[name = tensor<string, []>("concat_72_axis_0"), val = tensor<int32, []>(0)];
            tensor<bool, []> concat_72_interleave_0 = const()[name = tensor<string, []>("concat_72_interleave_0"), val = tensor<bool, []>(false)];
            tensor<int32, [3]> concat_72 = concat(axis = concat_72_axis_0, interleave = concat_72_interleave_0, values = (gather_154, gather_155, var_23))[name = tensor<string, []>("concat_72")];
            tensor<fp16, [?, ?, 768]> var_926_cast_fp16 = reshape(shape = concat_72, x = var_921_cast_fp16)[name = tensor<string, []>("op_926_cast_fp16")];
            tensor<int32, [3]> var_930_shape_cast_fp16 = shape(x = var_926_cast_fp16)[name = tensor<string, []>("op_930_shape_cast_fp16")];
            tensor<int32, []> gather_156_indices_0 = const()[name = tensor<string, []>("gather_156_indices_0"), val = tensor<int32, []>(0)];
            tensor<int32, []> gather_156_axis_0 = const()[name = tensor<string, []>("gather_156_axis_0"), val = tensor<int32, []>(0)];
            tensor<int32, []> gather_156_batch_dims_0 = const()[name = tensor<string, []>("gather_156_batch_dims_0"), val = tensor<int32, []>(0)];
            tensor<int32, []> gather_156 = gather(axis = gather_156_axis_0, batch_dims = gather_156_batch_dims_0, indices = gather_156_indices_0, x = var_930_shape_cast_fp16)[name = tensor<string, []>("gather_156")];
            tensor<int32, []> gather_157_indices_0 = const()[name = tensor<string, []>("gather_157_indices_0"), val = tensor<int32, []>(1)];
            tensor<int32, []> gather_157_axis_0 = const()[name = tensor<string, []>("gather_157_axis_0"), val = tensor<int32, []>(0)];
            tensor<int32, []> gather_157_batch_dims_0 = const()[name = tensor<string, []>("gather_157_batch_dims_0"), val = tensor<int32, []>(0)];
            tensor<int32, []> gather_157 = gather(axis = gather_157_axis_0, batch_dims = gather_157_batch_dims_0, indices = gather_157_indices_0, x = var_930_shape_cast_fp16)[name = tensor<string, []>("gather_157")];
            tensor<int32, [2]> var_933 = const()[name = tensor<string, []>("op_933"), val = tensor<int32, [2]>([-1, 768])];
            tensor<fp16, [?, 768]> var_934_cast_fp16 = reshape(shape = var_933, x = var_926_cast_fp16)[name = tensor<string, []>("op_934_cast_fp16")];
            tensor<fp16, [768, 768]> transpose_29_cast_fp16_to_fp32_to_fp16_palettized = constexpr_lut_to_dense()[indices = tensor<uint8, [147456]>(BLOBFILE(path = tensor<string, []>("@model_path/weights/weight.bin"), offset = tensor<uint64, []>(22827904))), lut = tensor<fp16, [4]>([-0x1.71cp-3, -0x1.b04p-5, 0x1.97cp-5, 0x1.6b4p-3]), name = tensor<string, []>("transpose_29_cast_fp16_to_fp32_to_fp16_palettized"), shape = tensor<uint32, [2]>([768, 768])];
            tensor<fp16, [768]> x_119_bias_0_to_fp16 = const()[name = tensor<string, []>("x_119_bias_0_to_fp16"), val = tensor<fp16, [768]>(BLOBFILE(path = tensor<string, []>("@model_path/weights/weight.bin"), offset = tensor<uint64, []>(22975424)))];
            tensor<fp16, [?, 768]> x_119_cast_fp16 = linear(bias = x_119_bias_0_to_fp16, weight = transpose_29_cast_fp16_to_fp32_to_fp16_palettized, x = var_934_cast_fp16)[name = tensor<string, []>("x_119_cast_fp16")];
            tensor<int32, []> concat_73_axis_0 = const()[name = tensor<string, []>("concat_73_axis_0"), val = tensor<int32, []>(0)];
            tensor<bool, []> concat_73_interleave_0 = const()[name = tensor<string, []>("concat_73_interleave_0"), val = tensor<bool, []>(false)];
            tensor<int32, [3]> concat_73 = concat(axis = concat_73_axis_0, interleave = concat_73_interleave_0, values = (gather_156, gather_157, var_6))[name = tensor<string, []>("concat_73")];
            tensor<fp16, [?, ?, 768]> input_75_cast_fp16 = reshape(shape = concat_73, x = x_119_cast_fp16)[name = tensor<string, []>("input_75_cast_fp16")];
            tensor<fp16, [?, ?, 768]> input_77_cast_fp16 = add(x = input_75_cast_fp16, y = input_73_cast_fp16)[name = tensor<string, []>("input_77_cast_fp16")];
            tensor<int32, [1]> x_121_axes_0 = const()[name = tensor<string, []>("x_121_axes_0"), val = tensor<int32, [1]>([-1])];
            tensor<fp16, [768]> transformer_h_7_ln_2_weight_to_fp16 = const()[name = tensor<string, []>("transformer_h_7_ln_2_weight_to_fp16"), val = tensor<fp16, [768]>(BLOBFILE(path = tensor<string, []>("@model_path/weights/weight.bin"), offset = tensor<uint64, []>(22977024)))];
            tensor<fp16, [768]> transformer_h_7_ln_2_bias_to_fp16 = const()[name = tensor<string, []>("transformer_h_7_ln_2_bias_to_fp16"), val = tensor<fp16, [768]>(BLOBFILE(path = tensor<string, []>("@model_path/weights/weight.bin"), offset = tensor<uint64, []>(22978624)))];
            tensor<fp16, [?, ?, 768]> x_121_cast_fp16 = layer_norm(axes = x_121_axes_0, beta = transformer_h_7_ln_2_bias_to_fp16, epsilon = var_5_to_fp16, gamma = transformer_h_7_ln_2_weight_to_fp16, x = input_77_cast_fp16)[name = tensor<string, []>("x_121_cast_fp16")];
            tensor<int32, [3]> var_952_shape_cast_fp16 = shape(x = x_121_cast_fp16)[name = tensor<string, []>("op_952_shape_cast_fp16")];
            tensor<int32, []> gather_159_indices_0 = const()[name = tensor<string, []>("gather_159_indices_0"), val = tensor<int32, []>(0)];
            tensor<int32, []> gather_159_axis_0 = const()[name = tensor<string, []>("gather_159_axis_0"), val = tensor<int32, []>(0)];
            tensor<int32, []> gather_159_batch_dims_0 = const()[name = tensor<string, []>("gather_159_batch_dims_0"), val = tensor<int32, []>(0)];
            tensor<int32, []> gather_159 = gather(axis = gather_159_axis_0, batch_dims = gather_159_batch_dims_0, indices = gather_159_indices_0, x = var_952_shape_cast_fp16)[name = tensor<string, []>("gather_159")];
            tensor<int32, []> gather_160_indices_0 = const()[name = tensor<string, []>("gather_160_indices_0"), val = tensor<int32, []>(1)];
            tensor<int32, []> gather_160_axis_0 = const()[name = tensor<string, []>("gather_160_axis_0"), val = tensor<int32, []>(0)];
            tensor<int32, []> gather_160_batch_dims_0 = const()[name = tensor<string, []>("gather_160_batch_dims_0"), val = tensor<int32, []>(0)];
            tensor<int32, []> gather_160 = gather(axis = gather_160_axis_0, batch_dims = gather_160_batch_dims_0, indices = gather_160_indices_0, x = var_952_shape_cast_fp16)[name = tensor<string, []>("gather_160")];
            tensor<int32, [2]> var_955 = const()[name = tensor<string, []>("op_955"), val = tensor<int32, [2]>([-1, 768])];
            tensor<fp16, [?, 768]> var_956_cast_fp16 = reshape(shape = var_955, x = x_121_cast_fp16)[name = tensor<string, []>("op_956_cast_fp16")];
            tensor<fp16, [3072, 768]> transpose_30_cast_fp16_to_fp32_to_fp16_palettized = constexpr_lut_to_dense()[indices = tensor<uint8, [589824]>(BLOBFILE(path = tensor<string, []>("@model_path/weights/weight.bin"), offset = tensor<uint64, []>(22980224))), lut = tensor<fp16, [4]>([-0x1.94p-3, -0x1.f08p-5, 0x1.bbcp-5, 0x1.858p-3]), name = tensor<string, []>("transpose_30_cast_fp16_to_fp32_to_fp16_palettized"), shape = tensor<uint32, [2]>([3072, 768])];
            tensor<fp16, [3072]> x_123_bias_0_to_fp16 = const()[name = tensor<string, []>("x_123_bias_0_to_fp16"), val = tensor<fp16, [3072]>(BLOBFILE(path = tensor<string, []>("@model_path/weights/weight.bin"), offset = tensor<uint64, []>(23570112)))];
            tensor<fp16, [?, 3072]> x_123_cast_fp16 = linear(bias = x_123_bias_0_to_fp16, weight = transpose_30_cast_fp16_to_fp32_to_fp16_palettized, x = var_956_cast_fp16)[name = tensor<string, []>("x_123_cast_fp16")];
            tensor<int32, []> concat_74_axis_0 = const()[name = tensor<string, []>("concat_74_axis_0"), val = tensor<int32, []>(0)];
            tensor<bool, []> concat_74_interleave_0 = const()[name = tensor<string, []>("concat_74_interleave_0"), val = tensor<bool, []>(false)];
            tensor<int32, [3]> concat_74 = concat(axis = concat_74_axis_0, interleave = concat_74_interleave_0, values = (gather_159, gather_160, var_11))[name = tensor<string, []>("concat_74")];
            tensor<fp16, [?, ?, 3072]> input_79_cast_fp16 = reshape(shape = concat_74, x = x_123_cast_fp16)[name = tensor<string, []>("input_79_cast_fp16")];
            tensor<string, []> x_125_mode_0 = const()[name = tensor<string, []>("x_125_mode_0"), val = tensor<string, []>("TANH_APPROXIMATION")];
            tensor<fp16, [?, ?, 3072]> x_125_cast_fp16 = gelu(mode = x_125_mode_0, x = input_79_cast_fp16)[name = tensor<string, []>("x_125_cast_fp16")];
            tensor<int32, [3]> var_974_shape_cast_fp16 = shape(x = x_125_cast_fp16)[name = tensor<string, []>("op_974_shape_cast_fp16")];
            tensor<int32, []> gather_162_indices_0 = const()[name = tensor<string, []>("gather_162_indices_0"), val = tensor<int32, []>(0)];
            tensor<int32, []> gather_162_axis_0 = const()[name = tensor<string, []>("gather_162_axis_0"), val = tensor<int32, []>(0)];
            tensor<int32, []> gather_162_batch_dims_0 = const()[name = tensor<string, []>("gather_162_batch_dims_0"), val = tensor<int32, []>(0)];
            tensor<int32, []> gather_162 = gather(axis = gather_162_axis_0, batch_dims = gather_162_batch_dims_0, indices = gather_162_indices_0, x = var_974_shape_cast_fp16)[name = tensor<string, []>("gather_162")];
            tensor<int32, []> gather_163_indices_0 = const()[name = tensor<string, []>("gather_163_indices_0"), val = tensor<int32, []>(1)];
            tensor<int32, []> gather_163_axis_0 = const()[name = tensor<string, []>("gather_163_axis_0"), val = tensor<int32, []>(0)];
            tensor<int32, []> gather_163_batch_dims_0 = const()[name = tensor<string, []>("gather_163_batch_dims_0"), val = tensor<int32, []>(0)];
            tensor<int32, []> gather_163 = gather(axis = gather_163_axis_0, batch_dims = gather_163_batch_dims_0, indices = gather_163_indices_0, x = var_974_shape_cast_fp16)[name = tensor<string, []>("gather_163")];
            tensor<int32, [2]> var_977 = const()[name = tensor<string, []>("op_977"), val = tensor<int32, [2]>([-1, 3072])];
            tensor<fp16, [?, 3072]> var_978_cast_fp16 = reshape(shape = var_977, x = x_125_cast_fp16)[name = tensor<string, []>("op_978_cast_fp16")];
            tensor<fp16, [768, 3072]> transpose_31_cast_fp16_to_fp32_to_fp16_palettized = constexpr_lut_to_dense()[indices = tensor<uint8, [589824]>(BLOBFILE(path = tensor<string, []>("@model_path/weights/weight.bin"), offset = tensor<uint64, []>(23576320))), lut = tensor<fp16, [4]>([-0x1.754p-3, -0x1.abp-5, 0x1.cp-5, 0x1.7bp-3]), name = tensor<string, []>("transpose_31_cast_fp16_to_fp32_to_fp16_palettized"), shape = tensor<uint32, [2]>([768, 3072])];
            tensor<fp16, [768]> x_bias_0_to_fp16 = const()[name = tensor<string, []>("x_bias_0_to_fp16"), val = tensor<fp16, [768]>(BLOBFILE(path = tensor<string, []>("@model_path/weights/weight.bin"), offset = tensor<uint64, []>(24166208)))];
            tensor<fp16, [?, 768]> x_cast_fp16 = linear(bias = x_bias_0_to_fp16, weight = transpose_31_cast_fp16_to_fp32_to_fp16_palettized, x = var_978_cast_fp16)[name = tensor<string, []>("x_cast_fp16")];
            tensor<int32, []> concat_75_axis_0 = const()[name = tensor<string, []>("concat_75_axis_0"), val = tensor<int32, []>(0)];
            tensor<bool, []> concat_75_interleave_0 = const()[name = tensor<string, []>("concat_75_interleave_0"), val = tensor<bool, []>(false)];
            tensor<int32, [3]> concat_75 = concat(axis = concat_75_axis_0, interleave = concat_75_interleave_0, values = (gather_162, gather_163, var_6))[name = tensor<string, []>("concat_75")];
            tensor<fp16, [?, ?, 768]> input_81_cast_fp16 = reshape(shape = concat_75, x = x_cast_fp16)[name = tensor<string, []>("input_81_cast_fp16")];
            tensor<fp16, [?, ?, 768]> input_83_cast_fp16 = add(x = input_77_cast_fp16, y = input_81_cast_fp16)[name = tensor<string, []>("input_83_cast_fp16")];
            tensor<int32, [1]> hidden_states_axes_0 = const()[name = tensor<string, []>("hidden_states_axes_0"), val = tensor<int32, [1]>([-1])];
            tensor<fp16, [768]> transformer_ln_f_weight_to_fp16 = const()[name = tensor<string, []>("transformer_ln_f_weight_to_fp16"), val = tensor<fp16, [768]>(BLOBFILE(path = tensor<string, []>("@model_path/weights/weight.bin"), offset = tensor<uint64, []>(24167808)))];
            tensor<fp16, [768]> transformer_ln_f_bias_to_fp16 = const()[name = tensor<string, []>("transformer_ln_f_bias_to_fp16"), val = tensor<fp16, [768]>(BLOBFILE(path = tensor<string, []>("@model_path/weights/weight.bin"), offset = tensor<uint64, []>(24169408)))];
            tensor<fp16, [?, ?, 768]> hidden_states_cast_fp16 = layer_norm(axes = hidden_states_axes_0, beta = transformer_ln_f_bias_to_fp16, epsilon = var_5_to_fp16, gamma = transformer_ln_f_weight_to_fp16, x = input_83_cast_fp16)[name = tensor<string, []>("hidden_states_cast_fp16")];
            tensor<int32, [2]> var_992 = const()[name = tensor<string, []>("op_992"), val = tensor<int32, [2]>([-1, 768])];
            tensor<fp16, [?, 768]> input_cast_fp16 = reshape(shape = var_992, x = hidden_states_cast_fp16)[name = tensor<string, []>("input_cast_fp16")];
            tensor<fp16, [50257]> linear_0_bias_0_to_fp16 = const()[name = tensor<string, []>("linear_0_bias_0_to_fp16"), val = tensor<fp16, [50257]>(BLOBFILE(path = tensor<string, []>("@model_path/weights/weight.bin"), offset = tensor<uint64, []>(24171008)))];
            tensor<fp16, [?, 50257]> linear_0_cast_fp16 = linear(bias = linear_0_bias_0_to_fp16, weight = transformer_wte_weight_to_fp16_palettized, x = input_cast_fp16)[name = tensor<string, []>("linear_0_cast_fp16")];
            tensor<string, []> linear_0_cast_fp16_to_fp32_dtype_0 = const()[name = tensor<string, []>("linear_0_cast_fp16_to_fp32_dtype_0"), val = tensor<string, []>("fp32")];
            tensor<fp32, [?, 50257]> var_1014 = cast(dtype = linear_0_cast_fp16_to_fp32_dtype_0, x = linear_0_cast_fp16)[name = tensor<string, []>("cast_0")];
            tensor<fp32, [?, 12, ?, 64]> value_29 = cast(dtype = value_29_cast_fp16_to_fp32_dtype_0, x = value_29_cast_fp16)[name = tensor<string, []>("cast_1")];
            tensor<fp32, [?, 12, ?, 64]> key_29 = cast(dtype = key_29_cast_fp16_to_fp32_dtype_0, x = key_29_cast_fp16)[name = tensor<string, []>("cast_2")];
            tensor<fp32, [?, 12, ?, 64]> value_25 = cast(dtype = value_25_cast_fp16_to_fp32_dtype_0, x = value_25_cast_fp16)[name = tensor<string, []>("cast_3")];
            tensor<fp32, [?, 12, ?, 64]> key_25 = cast(dtype = key_25_cast_fp16_to_fp32_dtype_0, x = key_25_cast_fp16)[name = tensor<string, []>("cast_4")];
            tensor<fp32, [?, 12, ?, 64]> value_21 = cast(dtype = value_21_cast_fp16_to_fp32_dtype_0, x = value_21_cast_fp16)[name = tensor<string, []>("cast_5")];
            tensor<fp32, [?, 12, ?, 64]> key_21 = cast(dtype = key_21_cast_fp16_to_fp32_dtype_0, x = key_21_cast_fp16)[name = tensor<string, []>("cast_6")];
            tensor<fp32, [?, 12, ?, 64]> value_17 = cast(dtype = value_17_cast_fp16_to_fp32_dtype_0, x = value_17_cast_fp16)[name = tensor<string, []>("cast_7")];
            tensor<fp32, [?, 12, ?, 64]> key_17 = cast(dtype = key_17_cast_fp16_to_fp32_dtype_0, x = key_17_cast_fp16)[name = tensor<string, []>("cast_8")];
            tensor<fp32, [?, 12, ?, 64]> value_13 = cast(dtype = value_13_cast_fp16_to_fp32_dtype_0, x = value_13_cast_fp16)[name = tensor<string, []>("cast_9")];
            tensor<fp32, [?, 12, ?, 64]> key_13 = cast(dtype = key_13_cast_fp16_to_fp32_dtype_0, x = key_13_cast_fp16)[name = tensor<string, []>("cast_10")];
            tensor<fp32, [?, 12, ?, 64]> value_9 = cast(dtype = value_9_cast_fp16_to_fp32_dtype_0, x = value_9_cast_fp16)[name = tensor<string, []>("cast_11")];
            tensor<fp32, [?, 12, ?, 64]> key_9 = cast(dtype = key_9_cast_fp16_to_fp32_dtype_0, x = key_9_cast_fp16)[name = tensor<string, []>("cast_12")];
            tensor<fp32, [?, 12, ?, 64]> value_5 = cast(dtype = value_5_cast_fp16_to_fp32_dtype_0, x = value_5_cast_fp16)[name = tensor<string, []>("cast_13")];
            tensor<fp32, [?, 12, ?, 64]> key_5 = cast(dtype = key_5_cast_fp16_to_fp32_dtype_0, x = key_5_cast_fp16)[name = tensor<string, []>("cast_14")];
            tensor<fp32, [1, 12, ?, 64]> value_1 = cast(dtype = value_1_cast_fp16_to_fp32_dtype_0, x = value_1_cast_fp16)[name = tensor<string, []>("cast_15")];
            tensor<fp32, [1, 12, ?, 64]> key_1 = cast(dtype = key_1_cast_fp16_to_fp32_dtype_0, x = key_1_cast_fp16)[name = tensor<string, []>("cast_16")];
        } -> (var_1014, key_1, value_1, key_5, value_5, key_9, value_9, key_13, value_13, key_17, value_17, key_21, value_21, key_25, value_25, key_29, value_29);
}